policy.pkl (torch, 137989 bytes, 8 tensors)

layers.0.weight f4 [128, 4]
-0.062161412 -0.52857846 -0.807308 -0.42413762 -0.0005116395 0.0020703007 -0.007403051 0.0034464824
0.35126916 0.35124356 0.8969793 0.51457995 -0.3212579 -0.38339642 0.09071146 -0.020894488
0.47538462 -0.96366173 -1.2924317 -0.9259219 0.1976533 0.025350885 0.025710788 0.04666008
0.013428692 -0.01854058 0.0005468445 -0.001817669 0.0029749724 -0.004580867 0.0018096406 -0.0013442903
0.043457277 0.008434555 0.0051647667 0.011323378 -0.02749921 -0.1959774 -0.30492464 -0.15556161
0.11208242 0.20302792 0.5700233 0.27322674 -0.008546758 0.009832156 0.0007983909 0.0026515578
-0.09729247 -0.07653619 0.1763279 0.16180071 0.14484411 0.077045634 0.2569031 0.16610941
0.09293039 0.10403318 0.24588305 0.15181455 0.53826463 0.020467333 -0.10687161 0.00060703955
-0.008424031 0.015093155 0.003285574 0.010799641 0.23106246 0.24007127 0.58827245 0.34389257
0.12424906 -0.14929765 -0.24469618 -0.19313167 0.11800024 -0.08047068 -0.0940736 -0.09469091
0.28096673 -0.35267812 -0.49634442 -0.40752038 -0.09561568 -0.06633314 0.13745083 0.12817398
0.14431968 0.027621951 0.018486468 0.037693538 0.007171147 -0.011083541 -0.0014558941 0.0034325973
0.12052624 -0.09422849 -0.04101699 -0.21957633 0.12051196 -0.33078873 -0.4845587 -0.33609092
0.23006502 -0.41323364 -0.5806927 -0.4658725 0.017417012 -0.023604754 -0.008059529 0.0010418543
-0.08274127 -0.32627422 -0.4853159 -0.24550264 -0.047797352 -0.08016801 -0.0789412 -0.054155987
0.016701706 -0.020938009 -0.01157716 0.0069597606 0.16957712 0.064307004 0.017157175 0.032131497
0.42275685 -0.24258919 -0.33089724 -0.20623022 -0.013972752 0.015142889 0.0034024185 0.005394777
0.13121651 -0.37574816 -0.5866067 -0.37163407 0.0058522397 -0.0075421985 -0.0066935285 0.0025485968
0.014970565 -0.0205286 -0.00015530725 -0.0019232469 -0.15984894 -0.122574225 -0.11694085 -0.1012189
0.16098927 0.03337048 0.0013273666 0.014384477 0.017416194 -0.023080027 -0.0044508986 0.000116970026
0.23232812 0.075617746 0.039615463 0.037128948 0.010422014 -0.0117802415 -0.0074942266 0.0043349992
-0.14827289 -0.11557143 0.23717882 0.24332224 0.13868015 0.046103023 0.013601609 0.015542286
0.243223 -0.4548429 -0.5573683 -0.48504576 0.09719329 -0.022561185 -0.037134074 -0.0042687124
0.11503004 0.014774764 0.1573623 0.07626008 -0.042097844 -0.36861923 -0.5974455 -0.31295264
-0.030520122 0.031499505 0.3537905 0.14051348 -0.07544187 -0.12246788 0.014511373 -0.013188482
0.00079757336 -0.0010798174 0.0021957473 -0.003556183 0.0033371744 -0.004077293 0.0036343473 -0.0053404076
-0.12708637 -0.17857553 0.026708411 -0.020859666 0.01860701 -0.025179097 -0.010043807 0.0017179627
0.13070548 0.034842446 0.0053521497 0.011936756 0.006562977 -0.009659465 -0.0014964623 -0.0055550267
-0.04328051 -0.025239477 0.09757387 0.07285469 0.05373946 -0.0012590373 0.014073252 0.008189351
-0.018042402 0.021381553 0.021717347 -0.018796843 0.001868983 0.010140906 0.014733816 -0.0055017355
0.014607035 -0.016786253 -0.0097762095 0.006820814 -0.35650003 -0.31888995 -0.273289 -0.20270695
0.28458774 0.04265415 0.047423977 0.064318165 0.03604942 -0.03690381 -0.022205787 -0.09814829
00000000: f79c 7ebd eb50 07bf bdab 4ebf 9128 d9be
00000010: 8c1f 06ba e2ad 073b 4b95 f2bb 61de 613b
00000020: 8dd9 b33e 32d6 b33e 6fa0 653f 83bb 033f
00000030: ea7b a4be 894c c4be eec6 b93d eb2a abbc
00000040: 9d65 f33e 89b2 76bf 676e a5bf 3809 6dbf
00000050: a065 4a3e a9ac cf3c 6e9f d23c a41e 3f3d
00000060: 0404 5c3c 6ae2 97bc 1d5a 0f3a da3e eeba
00000070: c1f7 423b 191b 96bb 7631 ed3a e632 b0ba
00000080: 4200 323d 1631 0a3c 343d a93b b185 393c
00000090: 0646 e1bc 4dae 48be 151f 9cbe 8b4b 1fbe
000000a0: 788b e53d 8de6 4f3e 0ced 113f 60e4 8b3e
000000b0: b407 0cbc 0d17 213c 1b4b 513a c2c5 2d3b
000000c0: 4641 c7bd 02bf 9cbd 4d8f 343e 16af 253e
000000d0: 0452 143e 1aca 9d3d ce88 833e 9618 2a3e
000000e0: 4a52 be3d 590f d53d c4c8 7b3e 4675 1b3e
000000f0: b6cb 093f 1cab a73c 81df dabd bc21 1f3a
00000100: f204 0abc 4849 773c c952 573b faf0 303c
00000110: a39b 6c3e 3ed5 753e 0699 163f b012 b03e
00000120: 4b76 fe3d 7ce1 18be a391 7abe 4fc4 45be
00000130: 1caa f13d d0cd a4bd a9a9 c0bd 4fed c1bd
00000140: dfda 8f3e 3a92 b4be db20 febe 83a6 d0be
00000150: 27d2 c3bd abd9 87bd e9bf 0c3e 0a40 033e
00000160: 8ac8 133e 6e47 e23c ef70 973c 8a64 1a3d
00000170: f1fb ea3b be97 35bc b3d3 beba 6df5 603b
00000180: 76d6 f63d defa c0bd 6e01 28bd 9ed8 60be
00000190: f9ce f63d 245d a9be 1418 f8be 1c14 acbe
000001a0: 2a96 6b3e 5c93 d3be 47a8 14bf d786 eebe
000001b0: 1fae 8e3c c25e c1bc 1d0c 04bc d48e 883a
000001c0: 4174 a9bd 6a0d a7be 537b f8be 0b65 7bbe
000001d0: 28c7 43bd 202f a4bd edab a1bd abd2 5dbd
000001e0: 04d2 883c 3086 abbc 21ae 3dbc b40e e43b
000001f0: a0a5 2d3e 64b3 833d 348d 8c3c 519c 033d
00000200: 9673 d83e 4d69 78be 5d6b a9be 042e 53be
00000210: f8ed 64bc e119 783c 1cfb 5e3b abc6 b03b
00000220: 9f5d 063e 1062 c0be db2b 16bf d246 bebe
00000230: 25c4 bf3b 8c24 f7bb 6355 dbbb 5c06 273b
00000240: 1a47 753c 982b a8bc f9d9 22b9 7515 fcba
00000250: 71af 23be 3208 fbbd af7e efbd db4b cfbd
00000260: 5fda 243e 7caf 083d 08fb ad3a dfac 6b3c
00000270: 68ac 8e3c 5312 bdbc d8d8 91bb ce4d f538
00000280: 6ce7 6d3e 7add 9a3d d343 223d 8614 183d
00000290: 18c1 2a3c ea01 41bc 2192 f5bb 9c0c 8e3b
000002a0: d9d4 17be b7b0 ecbd 01df 723e 7729 793e
000002b0: 2b02 0e3e 86d6 3c3d 48d9 5e3c 13a5 7e3c
000002c0: 730f 793e 2be1 e8be b0af 0ebf eb57 f8be
000002d0: 470d c73d 3cd2 b8bc e619 18bd 8ee0 8bbb
000002e0: df94 eb3d da11 723c 9523 213e 3f2e 9c3d
000002f0: ca6e 2cbd a9bb bcbe 30f2 18bf 543b a0be
00000300: 5605 fabc a005 013d 0724 b53e c4e2 0f3e
00000310: 4481 9abd 71d0 fabd 1cc1 6d3c 8114 58bc
00000320: 3e14 513a a988 8dba 87e6 0f3b da0e 69bb
00000330: 7fb4 5a3b d09a 85bb 3b2e 6e3b 96fe aebb
00000340: ee22 02be 81dc 36be 99cb da3c e4e1 aabc
00000350: ba6d 983c 6544 cebc c88e 24bc 432d e13a
00000360: a8d7 053e f4b6 0e3d 1661 af3b 6292 433c
00000370: 3e0e d73b bc42 1ebc f124 c4ba f106 b6bb
00000380: e746 31bd 05c3 cebc cfd4 c73d d734 953d
00000390: e81d 5c3d 4806 a5ba 7f93 663c a12c 063c
000003a0: a9cd 93bc 5e28 af3c 94e8 b13c d6fb 99bc
000003b0: aaf8 f43a 0b26 263c 1a66 713c e747 b4bb
000003c0: 5852 6f3c 5383 89bc 652c 20bc 2381 df3b
000003d0: 2c87 b6be 8b45 a3be 89ec 8bbe 6992 4fbe
000003e0: 7cb5 913e 1eb6 2e3d a53f 423d 3eb9 833d
000003f0: 8ea8 133d 7328 17bd e9e8 b5bc f801 c9bd

layers.0.bias f4 [128]
-0.21883631 -0.0037121607 -0.21382785 -0.4676128 -0.38015085 -0.15628827 -0.011847325 -0.0023501646
-0.0360527 -0.081326135 -0.089513615 -0.011932506 -0.09354197 -0.092503786 -0.05818778 -0.37547466
-0.01011491 -0.14232591 -0.07428449 -0.01679594 -0.14694595 -0.084321275 -0.119155385 -0.007284641
-0.024678465 -0.14248495 -0.19553153 -0.014853272 -0.1475264 -0.050592836 -0.017191453 -0.14523725
-0.12733561 -0.014365934 -0.14625119 -0.005606009 -0.01360584 -0.14705235 -0.12799898 -0.015857209
-0.18907884 -0.009923379 -0.1489269 -0.11411292 -0.19641599 -0.05914193 -0.12524079 -0.15614642
-0.0999389 -0.11447701 -0.005216189 -0.0043386095 -0.18373439 -0.015507064 -0.102905355 -0.0073843026
-0.049532346 -0.049122237 -0.015539461 -0.0115878405 -0.01437019 -0.32588255 -0.22089255 -0.0062378254
-1.0024749 -0.12912038 -0.06424387 -0.2218079 -0.0405756 -0.008697356 -0.044114236 -0.019655926
-0.017326098 -0.008665105 -0.15448175 -0.6058156 -0.028817756 -0.0031655408 -0.056708455 -0.06658928
-0.1426247 -0.17805128 -0.015315333 -0.010727903 -0.007445367 -0.22058506 -0.14030397 -0.01888416
-0.09342171 -0.016655229 -0.12223405 -0.3776995 -0.1141663 -0.3030812 -0.009822605 -0.15076834
-0.012701711 -0.14571418 -0.004791365 -0.07266218 -0.20819461 -0.007501219 -0.0067942482 0.005027496
-0.16221285 -0.014652366 -0.060616996 -0.009747151 -0.10809733 -0.39271268 -0.0038075927 -0.009383154
-0.06969333 -0.023529736 -0.02105249 -0.10924092 -0.023535464 -0.18410318 -0.19491728 -0.06707436
-0.13170539 -0.025958862 -0.3347288 -0.019866142 -0.11984628 -0.22651103 -0.013303602 -0.05136658
00000000: a016 60be b947 73bb b0f5 5abe f26a efbe
00000010: 22a3 c2be 080a 20be 481b 42bc 3805 1abb
00000020: ffab 13bd 518e a6bd ea52 b7bd 8f80 43bc
00000030: ef92 bfbd a072 bdbd 4f56 6ebd 373e c0be
00000040: 02b9 25bc e2bd 11be 7722 98bd a497 89bc
00000050: 0079 16be a2b0 acbd bd07 f4bd ffb3 eebb
00000060: 7e2a cabc 93e7 11be 6b39 48be 235b 73bc
00000070: 2911 17be 6f3a 4fbd 17d5 8cbc 13b9 14be
00000080: 4464 02be 185f 6bbc dfc2 15be 9db2 b7bb
00000090: 07eb 5ebc e494 16be 2a12 03be fae6 81bc
000000a0: e29d 41be ab95 22bc 4b80 18be 09b4 e9bd
000000b0: 4621 49be cf3e 72bd 1f3f 00be d9e4 1fbe
000000c0: c4ac ccbd ec72 eabd 91ec aabb e52a 8ebb
000000d0: de24 3cbe 5711 7ebc 0bc0 d2bd 05f8 f1bb
000000e0: 6ee2 4abd 6634 49bd 3999 7ebc edda 3dbc
000000f0: f270 6bbc 14da a6be a831 62be ac66 ccbb
00000100: 1951 80bf 2238 04be 4a92 83bd 9c21 63be
00000110: 9a32 26bd 5b7f 0ebc 21b1 34bd 7705 a1bc
00000120: 76ef 8dbc 16f8 0dbc 7730 1ebe bb16 1bbf
00000130: 3713 ecbc f674 4fbb 2047 68bd f65f 88bd
00000140: 360c 12be 1353 36be 2aed 7abc 16c4 2fbc
00000150: 44f8 f3bb 0de1 61be d8ab 0fbe f4b2 9abc
00000160: e253 bfbd 8c70 88bc d855 fabd d461 c1be
00000170: 05d0 e9bd 762d 9bbe feee 20bc 0463 1abe
00000180: d61a 50bc 1936 15be e200 9dbb e9cf 94bd
00000190: f830 55be c9cc f5bb 49a2 debb b1bd a43b
000001a0: 201b 26be 7a10 70bc 8749 78bd 84b2 1fbc
000001b0: 2262 ddbd a311 c9be ce88 79bb cdbb 19bc
000001c0: 60bb 8ebd 6fc1 c0bc 4676 acbc b4b9 dfbd
000001d0: 72cd c0bc 8b85 3cbe 6598 47be 485e 89bd
000001e0: c7dd 06be aea7 d4bc 9361 abbe 52be a2bc
000001f0: f771 f5bd 82f2 67be 5af7 59bc c365 52bd

layers.1.weight f4 [128, 128]
-0.0013985377 -0.00086877134 -0.00042942242 -0.001197249 0.00079151127 -0.00094964803 0.00048098172 -0.00025307873
-0.00079879037 0.00059744046 -0.0012777364 5.820766e-05 -0.0003863262 0.0008042235 0.0005890597 0.00048136883
-0.0010426397 -0.0003201771 -0.0013504869 -0.0008323083 5.1665014e-05 0.0014130496 -0.0005639549 -0.000921614
-0.0013413484 0.00015446542 -0.0011073485 0.0011867566 -0.00043404129 0.00032013236 0.0003942163 0.0006962044
-0.0003642412 -5.389614e-05 -0.0010461017 -0.0003433077 -0.00089991995 -0.00074153417 -0.0008488031 -0.0012168057
0.0002736823 -0.0005098786 -0.001279099 0.0010405937 0.0011635929 0.0012571272 0.00049162837 -0.0007353528
0.00033533646 0.0012889887 -0.00038801358 -0.0002695159 0.0004489703 9.033748e-05 0.00029477014 0.0010316003
-0.0012933526 -0.0013768912 0.00017854593 -0.0003474136 0.00046319814 0.00049565535 -0.00073146645 0.00085699063
-6.56494e-05 -4.1000356e-05 0.0013564323 -0.0011437547 -0.0005328553 -0.0012256753 -0.00089084456 0.0012119209
-0.0008400587 0.0014144039 0.00057093 -0.00018627786 9.591329e-05 -0.00025580925 -0.00029581453 -0.0001874321
9.8375276e-05 0.0008036074 -0.00085500197 -0.0008031403 0.0008157343 -0.00027618936 -0.00036818156 -0.0014077896
7.1599105e-05 0.00065232464 -0.00077435677 -7.655894e-05 -0.0002112537 0.00079207827 -0.00026311877 -0.0009923269
0.00022533507 -0.0006934994 -0.0011882938 0.0003985528 -0.000976579 -0.00018691081 0.00044038196 0.0005837879
-0.00069135753 -0.00020738614 -0.0014034996 -0.00096038065 0.0009746975 0.00075190724 -0.0005309712 0.0010156559
0.00015844384 0.001332571 -0.00029800218 -0.0013722789 -0.0006571995 -0.0012899023 0.0011351925 0.0008516787
-0.00044547836 0.00021877543 -0.00048834924 -0.00092644594 0.0006209511 0.0007278627 -0.0009597954 -0.001323404
-0.22655942 0.0012062159 -0.095181525 -0.04334536 -0.15000582 -0.048507582 0.0019062824 -0.0018306978
-0.0114757195 -0.09031631 -0.00050013047 0.0039356886 0.035349328 -0.033855006 -0.019405214 -0.06991568
0.0026690387 -0.05598115 -0.025539886 -0.011895344 -0.057556245 0.011184654 -0.035995714 0.003031939
0.019154474 -0.053460043 -0.062253214 0.00524657 -0.17800952 -0.052300006 0.0012084183 -0.007184293
-0.034603737 0.0033054652 -0.088588625 -0.00041897222 0.003154325 -0.14431025 -0.028691577 0.0040832045
-0.016342208 -0.0013523881 0.03587739 -0.009943993 -0.034370974 -0.01954236 -0.020775335 -0.17780925
0.025949538 -0.0041406997 0.001106636 -0.0013590044 -0.015217341 0.003810692 -0.010403986 -0.00065775367
0.012334539 -0.012437013 0.002137837 0.0031094076 0.0022407854 -0.3587108 -0.06510378 0.010384295
-0.22497562 -0.014738553 -0.07208079 -0.114856265 -0.041180618 0.0009798827 0.054843783 0.0035035133
0.012147224 0.0019778695 -0.18761551 -0.09514715 0.0058095576 0.008341529 -0.014144387 -0.024054676
-0.14267823 -0.10846115 0.005488928 0.0012537737 -0.0011419593 -0.029441522 -0.007988812 0.0033135295
-0.01069763 0.0024124237 0.01766968 -0.095472984 -0.028734714 -0.018286314 0.0010528241 -0.19912672
0.0038349514 -0.022451105 -0.0021906605 0.054817043 -0.16098525 4.7591886e-05 0.0019598762 0.010320166
-0.049581368 0.0034774328 -0.020454006 0.002865764 -0.059248406 -0.089280814 0.009451288 -0.0022547839
-0.06887972 0.01702805 -0.033801425 -0.029175555 0.0040745633 -0.05976062 -0.023724748 -0.018121686
-0.11382203 -0.007940054 0.03780944 0.005744206 -0.024608672 -0.25891426 0.003193301 0.012559206
00000000: 234f b7ba 42be 63ba 1a24 e1b9 03ed 9cba
00000010: 6c7d 4f3a cdf1 78ba 462c fc39 a7af 84b9
00000020: ea65 51ba 8d9d 1c3a b879 a7ba 0024 7438
00000030: d38b cab9 87d2 523a 216b 1a3a 3b60 fc39
00000040: 2fa9 88ba 71dd a7b9 d202 b1ba 442f 5aba
00000050: e3b2 5838 1436 b93a 5fd6 13ba 7898 71ba
00000060: 2fd0 afba fff7 2139 7324 91ba f28c 9b3a
00000070: 0990 e3b9 70d7 a739 d1ae ce39 7d81 363a
00000080: a0f7 beb9 8a0e 62b8 591d 89ba fbfd b3b9
00000090: 9be8 6bba 8463 42ba 3682 5eba 397d 9fba
000000a0: 047d 8f39 60a9 05ba 71a7 a7ba 8864 883a
000000b0: b383 983a 30c6 a43a 9fe0 003a b1c4 40ba
000000c0: 19d0 af39 49f3 a83a 4d6e cbb9 d04d 8db9
000000d0: c663 eb39 9173 bd38 618b 9a39 c336 873a
000000e0: b685 a9ba cd78 b4ba 0f38 3b39 1025 b6b9
000000f0: 67d9 f239 deee 013a e2bf 3fba aba7 603a
00000100: 41ad 89b8 ccf7 2bb8 51ca b13a 0aea 95ba
00000110: 50af 0bba d7a6 a0ba 9187 69ba 51d9 9e3a
00000120: 6337 5cba 8563 b93a 77aa 153a 9553 43b9
00000130: 0e25 c938 231e 86b9 8e17 9bb9 6c89 44b9
00000140: d34e ce38 2ea9 523a 3622 60ba d589 52ba
00000150: 01d7 553a 82cd 90b9 7e08 c1b9 9585 b8ba
00000160: 7a27 9638 c400 2b3a 34fe 4aba 458e a0b8
00000170: fc83 5db9 79a3 4f3a 34f3 89b9 f710 82ba
00000180: ec47 6c39 f5cb 35ba 86c0 9bba daf4 d039
00000190: 8e00 80ba 7dfd 43b9 11e3 e639 5809 193a
000001a0: 383c 35ba cb75 59b9 a2f5 b7ba 0ec2 7bba
000001b0: d882 7f3a a41b 453a e030 0bba c21f 853a
000001c0: f223 2639 aaa9 ae3a 2d3d 9cb9 0ade b3ba
000001d0: e947 2cba f011 a9ba bdca 943a 3143 5f3a
000001e0: 188f e9b9 1567 6539 9004 00ba bcdc 72ba
000001f0: 53c7 223a 0ace 3e3a c79a 7bba 1276 adba
00000200: 31ff 67be e419 9e3a 88ee c2bd e78a 31bd
00000210: 209b 19be e3af 46bd 39dc f93a 06f4 efba
00000220: a804 3cbc c2f7 b8bd 301b 03ba f3f6 803b
00000230: 75ca 103d 8cab 0abd aff7 9ebc f42f 8fbd
00000240: 0aeb 2e3b 7e4c 65bd 0639 d1bc b0e4 42bc
00000250: 19c0 6bbd d73f 373c 3e70 13bd 7fb3 463b
00000260: d8e9 9c3c ebf8 5abd 3afd 7ebd 6beb ab3b
00000270: 2148 36be 8838 56bd ca63 9e3a 386a ebbb
00000280: a6bc 0dbd 81a0 583b f46d b5bd 80a9 dbb9
00000290: cbb8 4e3b 11c6 13be 990a ebbc 67cc 853b
000002a0: 18e0 85bc 9d42 b1ba 2cf4 123d 21ec 22bc
000002b0: 94c8 0cbd 4d17 a0bc 0931 aabc a113 36be
000002c0: 2094 d43c b5ae 87bb 8b0c 913a 9f20 b2ba
000002d0: 2752 79bc cebc 793b 7b75 2abc 1a6d 2cba
000002e0: ce16 4a3c 9dc4 4bbc f41a 0c3b 34c7 4b3b
000002f0: 24da 123b f1a8 b7be 2155 85bd e422 2a3c
00000300: 0260 66be f979 71bc 189f 93bd c339 ebbd
00000310: 02ad 28bd 686f 803a e0a3 603d 339b 653b
00000320: 2605 473c 259f 013b 481e 40be 82dc c2bd
00000330: 1a5e be3b e9aa 083c dcbd 67bc 500e c5bc
00000340: 3e1a 12be e120 debd 77dc b33b aa55 a43a
00000350: ccad 95ba 592f f1bc 82e3 02bc cd27 593b
00000360: 1d45 2fbc c119 1e3b 01c0 903c 5787 c3bd
00000370: 1065 ebbc 2ecd 95bc eafe 893a e0e7 4bbe
00000380: cf53 7b3b 61eb b7bc 2f91 0fbb d687 603d
00000390: 51d9 24be 669d 4738 4471 003b ea15 293c
000003a0: d515 4bbd a4e5 633b 298f a7bc 8bcf 3b3b
000003b0: 75ae 72bd dcd8 b6bd 93d9 1a3c ffc4 13bb
000003c0: d010 8dbd 697e 8b3c 5d73 0abd 9301 efbc
000003d0: ea83 853b 8dc7 74bd 675a c2bc ee73 94bc
000003e0: 861b e9bd 0017 02bc 12de 1a3d e439 bc3b
000003f0: 2098 c9bc 6990 84be b346 513b 21c5 4d3c

layers.1.bias f4 [128]
-0.0011139385 0.43222433 0.47270173 0.04421383 -0.00933466 0.6696154 0.0275986 0.13836439
0.22951816 0.21609287 0.2968175 0.11866175 0.019113977 0.18253705 -0.00096085155 0.06431119
1.0643425 0.15786813 0.26706806 -0.05423644 0.12676801 0.24732733 0.00029306798 0.040359452
-0.01994476 1.0649829 0.014602072 -0.023470743 -0.00016224006 0.2921649 0.23567156 0.22818638
-0.00063469866 0.05137615 -0.024838606 -0.010566566 -0.000487466 0.028478678 -0.0008563972 1.5184194
-0.0061178617 -0.0041538994 -0.0005123635 0.23212638 -0.00393907 0.2819708 0.2572809 1.4267287
0.14350489 -0.027442524 0.015075045 -0.10740348 1.1894498 -0.00096575235 0.010380806 0.34410903
-0.02402291 1.1315608 0.48274502 0.37037328 -0.00494743 -0.092589945 0.03968126 -0.029848088
0.0074903574 0.028897952 -0.017909333 -0.02103785 -0.0020677005 0.36023617 0.2128574 -0.000732901
1.5944387 -0.040685926 0.036322467 -0.0026920177 -0.07619755 0.14310552 0.1687975 -0.0074439184
-0.023553398 -0.001848945 0.08012092 -0.0011226294 0.34522635 -0.0018214283 0.5872356 -0.024576047
0.16098006 0.2460477 0.7215635 0.014346496 0.3755943 0.8023138 0.64877033 -0.012208158
0.22605373 0.25429738 0.58283585 -0.036557585 0.19623864 -0.025053194 0.0082438765 0.75246936
-0.0011971018 0.47520962 0.21437243 0.80792046 0.12207339 -0.013391251 -0.06691193 0.09485376
-0.0032495072 1.8707306 -0.011990646 0.12255969 0.642155 -0.05696736 -0.1518719 0.59154844
0.16904159 0.14712183 0.9726432 0.0113084065 0.34843528 0.045399074 -0.006707851 0.18594651
00000000: 9301 92ba 824c dd3e f605 f23e 9019 353d
00000010: 67f0 18bc ea6b 2b3f 7616 e23c 65af 0d3e
00000020: cf06 6b3e 7347 5d3e 77f8 973e ee04 f33d
00000030: ea94 9c3c feea 3a3e a8e1 7bba 96b5 833d
00000040: 603c 883f 2fa8 213e 25bd 883e 0827 5ebd
00000050: 79cf 013e 6043 7d3e eba6 9939 f44f 253d
00000060: 3163 a3bc 5c51 883f 873d 6f3c b745 c0bc
00000070: fc1e 2ab9 a396 953e e353 713e b1a9 693e
00000080: e861 26ba cc6f 523d 557a cbbc 641f 2dbc
00000090: 9492 ffb9 1e4c e93c d87f 60ba 915b c23f
000000a0: 5878 c8bb 6f1d 88bb 2250 06ba 8ab2 6d3e
000000b0: 5013 81bb 7a5e 903e 52ba 833e 0c9f b63f
000000c0: f2f2 123e 25cf e0bc 52fd 763c 5bf6 dbbd
000000d0: e43f 983f 8b2a 7dba 4214 2a3c 0f2f b03e
000000e0: b2cb c4bc fcd6 903f 5b2a f73e 91a1 bd3e
000000f0: 0d1e a2bb cc9f bdbd d188 223d fa83 f4bc
00000100: ac71 f53b 66bb ec3c 98b6 92bc 9257 acbc
00000110: 4282 07bb e070 b83e 4af7 593e 2720 40ba
00000120: 9116 cc3f 49a6 26bd dec6 143d 906c 30bb
00000130: 760d 9cbd 418a 123e 40d9 2c3e 1dec f3bb
00000140: 0ef3 c0bc 4d58 f2ba 7016 a43d 3125 93ba
00000150: 82c1 b03e febc eeba 1355 163f b553 c9bc
00000160: f5d7 243e eef3 7b3e 63b8 383f 910d 6b3c
00000170: e54d c03e 7064 4d3f d015 263f ba04 48bc
00000180: a17a 673e 4433 823e bb34 153f 68bd 15bd
00000190: c8f2 483e 5b3c cdbc 5311 073c d5a1 403f
000001a0: 12e8 9cba ad4e f33e 7284 5b3e e0d3 4e3f
000001b0: 9d01 fa3d fa66 5bbc 1f09 89bd b042 c23d
000001c0: aff5 54bb 1a74 ef3f 6a74 44bc 9300 fb3d
000001d0: 4564 243f 9b56 69bd 4f84 1bbe b86f 173f
000001e0: 3d19 2d3e 1ba7 163e 25ff 783f e546 393c
000001f0: 1c66 b23e 61f4 393d 88cd dbbb c368 3e3e

layers.2.weight f4 [128, 128]
0.0011011204 0.0005136428 0.00037497596 0.0008108187 -0.000114170914 -0.0012539262 0.0013238647 -0.0011411143
-0.00068216753 0.00025576135 -0.0013967507 -0.0009334335 -0.0006860118 -0.0002329914 -0.0013793488 -0.0006205099
-0.00047118822 0.0012602247 -0.0003482005 0.0008732531 0.0008900887 0.0005523731 -0.0007664125 0.0010617515
-0.001117169 0.0008639459 0.0011502232 0.0011260263 0.00041634706 -0.0009771388 0.0011440812 -0.00090121554
0.0011839833 -0.00048473183 -0.00015802226 0.001118919 0.0009444915 0.000192338 -0.0011557022 -0.0007691876
0.0010706218 0.0009655301 -0.0012605622 -0.00045612652 -0.0006352859 0.000105664396 -0.00017513176 0.000923191
-0.00039119698 -0.00025030688 0.00087588595 -0.00053782784 0.00052319164 -0.0008312146 -0.00051505526 0.00095292134
0.000907736 -0.0002631495 0.0003139735 -0.00076444633 -0.0012582695 0.0003169793 0.0009728985 -0.00024046429
0.0012459768 -0.000470769 0.00086478546 -5.9583184e-05 0.0013933701 -0.00035383817 -0.0012443725 -0.000599062
-0.00074029854 -0.00057688094 0.0012799213 0.00047854736 0.0005631522 0.0007432265 -0.0012268652 0.00083260075
0.00034725468 0.0005780136 -0.00024126668 0.00034641544 -0.00063563674 0.0010744402 0.0011051374 -0.00019171234
-0.00017794882 0.00083035976 -0.0003959307 -0.0008213918 -0.0006979992 -0.0012073505 -0.00047845815 0.0003119495
0.0006494626 -0.00052557833 -0.001397032 -0.00032451734 6.4419764e-05 0.0012405909 -0.00037297184 -0.0011052307
-0.00016633708 -0.00077590503 -1.177453e-05 -4.9133087e-05 0.0009432231 0.0009332356 -0.0012035654 0.0002362496
0.00085935596 0.0010262456 0.00048742205 -0.0013099088 0.00091084436 0.00028668263 0.00021465472 -0.00039634516
-0.0011696644 -0.0009697466 -0.0004345885 -0.0012188256 -0.00019935831 -0.0011120734 0.000202881 -0.00095925294
-0.0005144878 -0.00085911865 -0.00056177913 0.0007480875 0.0005781079 0.000739763 0.00034650165 -0.0014557036
0.0010397914 -4.0737956e-05 0.00044147347 0.0011365961 0.00013479064 -4.932587e-05 -0.0005427103 -0.0012831454
0.00022436798 -0.001188551 0.0013858937 0.00030539013 -0.00060513534 -0.00015337241 -0.00036982688 -0.00047459546
0.0008862696 -3.9683855e-05 -0.0012449545 0.0008019554 -0.00078530796 -0.00090790243 -0.0006186613 -0.0005722777
-0.0011165407 -0.0006635479 -0.0005127146 0.0006355171 -0.00037549378 -0.00023893795 6.369272e-05 -0.0012860103
0.001345523 -3.2445907e-05 -0.00056265976 -0.00016682038 -0.0010111947 -6.987659e-05 -0.00017640147 7.27165e-05
-0.0007626787 0.0013719207 -0.0010385014 -0.0002500018 0.000700227 -0.0013982592 2.420668e-06 0.0011177593
-0.00025711698 0.0004294685 -0.0011352876 -0.0008575059 -0.000112428395 0.0015507066 2.9568553e-06 -0.0007611282
-0.00027313604 5.0797247e-05 0.00023630964 0.0013074911 -0.0011175984 -0.00061351334 7.915572e-05 0.00016265275
-0.00047692348 0.0011602632 0.0006349077 6.8414647e-06 0.0002016367 0.0001309039 0.0006389238 -0.0011872762
0.00067673303 0.00091742544 -0.0003863355 0.0007985471 -0.00058698136 0.0016003476 -0.00039263655 -2.389941e-05
0.00041496335 -0.00083355646 -0.00078499346 -0.0013104323 -0.00026167883 0.00078448217 0.0003567239 -0.0012250715
0.0014551356 0.00076331134 -0.0010887163 0.00052313233 -0.0007781336 -0.000533367 0.0008577403 -0.0013161097
-0.0013736075 -0.0005237661 -0.00017370118 -0.0012739206 0.0006300831 -0.0011599604 -0.00047311484 0.00091386196
9.986113e-05 0.00038412953 0.0015217392 0.0011121735 0.0010366982 0.0008055917 0.0005613459 -0.0014201375
-0.0012350777 -0.0004538452 -0.0004144261 -0.0012977932 -0.0001267851 0.001916726 7.165313e-05 -0.00033772824
00000000: 7853 903a fca5 063a 6c98 c439 1f8d 543a
00000010: 0b6f efb8 c85a a4ba 8785 ad3a 7191 95ba
00000020: 7dd3 32ba b517 8639 2d13 b7ba a9b1 74ba
00000030: 79d5 33ba 274f 74b9 44cb b4ba b7a9 22ba
00000040: d009 f7b9 202e a53a ae8e b6b9 06eb 643a
00000050: d754 693a 22cd 103a 12e9 48ba 782a 8b3a
00000060: f96d 92ba 6e7a 623a 16c3 963a 2c97 933a
00000070: 2849 da39 5613 80ba fff4 953a 8d3f 6cba
00000080: e32f 9b3a 9b23 feb9 c7b2 25b9 b1a8 923a
00000090: c097 773a 57ae 4939 ee7a 97ba 4ea3 49ba
000000a0: 1b54 8c3a a11b 7d3a 7339 a5ba 4424 efb9
000000b0: 5189 26ba 2498 dd38 93a3 37b9 4d02 723a
000000c0: 9219 cdb9 9f3b 83b9 b69b 653a 04fd 0cba
000000d0: cc26 093a dee5 59ba c604 07ba 78cd 793a
000000e0: 22f5 6d3a 54f7 89b9 cf9c a439 2065 48ba
000000f0: 85ec a4ba 3e30 a639 1d0a 7f3a 2425 7cb9
00000100: 0b50 a33a 8cd1 f6b9 c5b2 623a f5e8 79b8
00000110: bea1 b63a 5b83 b9b9 361a a3ba 5f0a 1dba
00000120: 9810 42ba d339 17ba 08c3 a73a 8ae5 fa39
00000130: 81a0 133a 16d5 423a c4ce a0ba e442 5a3a
00000140: bc0f b639 d685 173a 88fc 7cb9 189f b539
00000150: dca0 26ba 3bd4 8c3a 42da 903a 6406 49b9
00000160: c697 3ab9 80ac 593a eb94 cfb9 ac52 57ba
00000170: eff9 36ba f63f 9eba 91d9 fab9 278d a339
00000180: b340 2a3a f7c6 09ba 9e1c b7ba fb23 aab9
00000190: 1919 8738 539b a23a 6f8b c3b9 63dd 90ba
000001a0: c56a 2eb9 1b66 4bba 398b 45b7 4014 4eb8
000001b0: a142 773a 62a4 743a f4c0 9dba c5b9 7739
000001c0: 6746 613a 1783 863a ae8c ff39 3fb1 abba
000001d0: bbc5 6e3a e44d 9639 f014 6139 8ccc cfb9
000001e0: 6d4f 99ba 9836 7eba 7bd9 e3b9 00c1 9fba
000001f0: d70a 51b9 fec2 91ba 74bc 5439 6076 7bba
00000200: b1de 06ba 7a36 61ba 5c44 13ba 4d1b 443a
00000210: 2a8c 173a a8ec 413a aaaa b539 4fcd beba
00000220: 9c49 883a 0cde 2ab8 9175 e739 d6f9 943a
00000230: 9656 0d39 40e3 4eb8 ac44 0eba 372f a8ba
00000240: 5244 6b39 27c9 9bba e0a6 b53a c51c a039
00000250: f2a1 1eba 98d2 20b9 53e5 c1b9 20d3 f8b9
00000260: 8c54 683a 3772 26b8 be2d a3ba 513a 523a
00000270: 20dd 4dba 4d00 6eba a82d 22ba e804 16ba
00000280: e458 92ba f2f1 2dba b267 06ba d598 263a
00000290: ecdd c4b9 6b8b 7ab9 c592 8538 588f a8ba
000002a0: 435c b03a 8716 08b8 757f 13ba 81ec 2eb9
000002b0: 108a 84ba b58a 92b8 69f8 38b9 607f 9838
000002c0: 80ee 47ba 05d2 b33a 531e 88ba ac12 83b9
000002d0: 708f 373a cb45 b7ba c272 2236 c781 923a
000002e0: a8cd 86b9 492a e139 eecd 94ba 3fca 60ba
000002f0: 89c7 ebb8 1441 cb3a 636e 4636 7386 47ba
00000300: b333 8fb9 210f 5538 e3c9 7739 1f60 ab3a
00000310: 617c 92ba 2fd4 20ba 6700 a638 c48d 2a39
00000320: 960b fab9 f913 983a ef6f 263a bc8f e536
00000330: 716e 5339 4043 0939 737d 273a 619e 9bba
00000340: c966 313a 617f 703a 138d cab9 9755 513a
00000350: a7df 19ba c1c2 d13a c9da cdb9 987b c8b7
00000360: 708f d939 0783 5aba 05c8 4dba d0c2 abba
00000370: f031 89b9 b5a5 4d3a ac06 bb39 9492 a0ba
00000380: 40ba be3a f518 483a 42b3 8eba d122 093a
00000390: a9fb 4bba a7d1 0bba fad9 603a 5081 acba
000003a0: 9f0a b4ba 594d 09ba 8e23 36b9 aff9 a6ba
000003b0: 292c 253a d009 98ba 660c f8b9 3d90 6f3a
000003c0: 896c d138 fe64 c939 1875 c73a 5ac6 913a
000003d0: d2e1 873a 582e 533a 4927 133a e823 baba
000003e0: 55e2 a1ba 12f2 edb9 5447 d9b9 b71a aaba
000003f0: 9ef1 04b9 a73a fb3a 7b44 9638 1e11 b1b9

layers.2.bias f4 [128]
-0.0017701137 -0.0002514992 -0.0011205841 0.43086272 0.09815822 0.29360586 0.37482053 0.08959104
0.34389293 -0.00036084407 0.05760128 -0.00090297096 0.026629565 0.00016386175 -0.00016951903 -7.197489e-05
0.18681379 -0.00037349996 0.17362116 -0.0007935597 -0.0011748577 8.381501e-05 0.19702537 0.16201687
0.49003595 0.9785453 0.0007671045 -0.00023570546 -0.00043664288 0.3201679 -0.0012825009 0.642745
0.005762079 0.0013743067 0.7131864 0.014154993 0.052509986 0.088945866 -0.0011221219 0.20255968
0.36981556 -0.0006709497 0.34147048 -0.00059779984 0.39736265 0.23574392 0.3393725 0.010203716
-0.00078938965 0.0045940187 0.0014507925 0.32180455 0.15884978 -0.00064768683 0.039968215 0.3562673
-0.0013637744 -0.0012780608 0.14023921 0.10245492 -0.0010063061 -0.0013402383 -0.000118340475 0.04399007
-0.0013913709 0.9837758 0.00016749586 0.040516764 0.026592754 0.5184235 0.00026349616 0.083997995
0.0008956938 0.36423668 0.0030673095 0.198813 0.08977267 -0.00019511025 -0.0011234443 0.44121313
0.5966214 -0.0012548236 0.4877836 0.22601578 0.00040775735 -0.00053711067 0.06513417 0.02493003
0.04326871 -0.0011800464 0.1688127 0.33667672 0.196787 1.4872282 -0.0024511025 0.45533895
0.8278165 0.008254073 0.4570561 0.034586873 -0.0013226997 0.0814933 0.99894434 0.355302
0.48684627 0.43011385 0.045419484 0.07296907 -0.0010183972 0.33205795 -0.00048436926 -0.001009669
0.00037103746 -0.00056963007 -0.00041295687 3.1706222e-05 0.036028635 0.12479012 0.00824181 0.71672404
0.0033230374 -0.00077359896 -0.0008622058 0.069326796 -0.00090090896 6.52682e-05 0.1108993 0.00010478585
00000000: 2903 e8ba a7db 83b9 90e0 92ba 0a9a dc3e
00000010: 2d07 c93d 8253 963e 7ae8 bf3e 827b b73d
00000020: bc12 b03e ac2f bdb9 52ef 6b3d 5bb5 6cba
00000030: 3f26 da3c 4ed2 2b39 ebc0 31b9 3af1 96b8
00000040: 1d4c 3f3e 51d2 c3b9 bfc9 313e e406 50ba
00000050: affd 99ba d7c5 af38 05c1 493e c0e7 253e
00000060: fee5 fa3e f281 7a3f 8317 493a b427 77b9
00000070: 37ed e4b9 0ced a33e 9719 a8ba f08a 243f
00000080: d2cf bc3b 1522 b43a 6293 363f 58ea 673c
00000090: b614 573d 4029 b63d 2a14 93ba ce6b 4f3e
000000a0: 7758 bd3e ace2 2fba 38d5 ae3e abb5 1cba
000000b0: 1e73 cb3e db66 713e 3bc2 ad3e 7d2d 273c
000000c0: 0bef 4eba 6c89 963b 8528 be3a 91c3 a43e
000000d0: 84a9 223e 87c9 29ba b6b5 233d ab68 b63e
000000e0: adc0 b2ba 9b84 a7ba de9a 0f3e e3d3 d13d
000000f0: 08e6 83ba efaa afba 8f2d f8b8 ee2e 343d
00000100: a95e b6ba bbd8 7b3f d4a1 2f39 e8f4 253d
00000110: 0cd9 d93c 67b7 043f db25 8a39 2407 ac3d
00000120: fecc 6a3a 3b7d ba3e ea04 493b a395 4b3e
00000130: bcda b73d 8296 4cb9 8940 93ba b0e6 e13e
00000140: 2ebc 183f e578 a4ba c6be f93e ae70 673e
00000150: 44c8 d539 e3cc 0cba 1065 853d 103a cc3c
00000160: 883a 313d c9ab 9aba 3ddd 2c3e e460 ac3e
00000170: 8882 493e 7e5d be3f ada2 20bb 3022 e93e
00000180: c8eb 533f 173c 073c 4203 ea3e f7aa 0d3d
00000190: 705e adba f6e5 a63d d1ba 7f3f 25ea b53e
000001a0: ea43 f93e e237 dc3e c809 3a3d cf70 953d
000001b0: bd7b 85ba 8003 aa3e f1f2 fdb9 df56 84ba
000001c0: ce87 c239 3a53 15ba 2282 d8b9 4cfc 0438
000001d0: c392 133d f691 ff3d a808 073c 3a7b 373f
000001e0: 51c7 593b 59cb 4aba a705 62ba 35fb 8d3d
000001f0: fa2a 6cba 99e0 8838 2c1f e33d 7ac0 db38

layers.3.weight f4 [2, 128]
0.0010288138 -0.00038447513 -0.0021639282 0.55226636 0.25535768 0.3695562 0.40665576 -0.042303786
0.7432514 -0.00095838256 -0.032328155 -0.0012921495 0.09700857 7.8153054e-05 -0.0007986273 -0.0014164796
-0.0047737584 -0.0002103934 0.23411098 3.257404e-05 -0.003240896 0.00065653 0.10184279 0.38960257
0.63483244 1.1105846 0.00036425938 0.00012063157 -0.0007304624 0.6308225 0.0005373215 0.7741976
0.017077327 0.019940294 0.8101015 -0.010096294 -0.034665875 0.2721193 0.0006431951 0.25703564
0.4166234 0.0012636994 0.43224102 -0.000783292 0.3978842 0.3378677 0.45267117 -0.019659866
0.00048787196 -0.014345758 0.0003598203 0.39689875 0.42046016 0.0010133012 -0.033693846 0.4954316
0.00050517364 -0.00047686283 0.4143761 0.18774694 -0.0028874378 0.0002862173 -0.0013145331 -0.031930313
-0.0020775853 1.1594069 -0.0011863406 -0.03902779 0.08619524 0.5861015 0.001292845 0.19462043
0.00043157357 0.5269724 0.0028603422 0.2190237 0.27262908 0.00032230222 0.00096452737 0.63270235
0.8203021 -0.001087511 0.5767659 -0.062108554 -0.0021223454 -0.0011065019 -0.048220377 -0.013222281
-0.01769421 -0.0015305748 0.393586 0.50588465 -0.110839374 1.6598067 -0.0012624409 0.50804347
0.8212026 0.035646994 0.6502462 0.046331197 -0.0016241679 0.16709195 1.1311684 0.3008814
0.5315891 0.08375182 0.14402057 0.20568566 0.000483569 0.4395369 -0.0010043412 0.00049919717
-0.00073205685 -0.00046615364 9.391878e-05 -0.0032658516 0.121975996 0.31935224 0.020757291 0.7269684
0.0010592461 -0.0018347008 -0.0006445831 -0.020265277 0.0005113608 -0.0006475628 -0.015802143 -2.7193186e-05
0.0009454509 -0.0022131663 -0.001558206 0.4550671 0.0041054473 0.3173593 0.4660385 0.24202776
0.11118348 0.0014153064 0.16045196 -9.693865e-05 -0.011347653 0.00024703916 0.0015949401 0.0011974662
0.4215677 -0.00063959183 0.17125116 -0.0003978294 -0.0018512126 -0.0022929874 0.34631443 0.025338337
0.5118646 1.1691638 -0.002446059 0.0009026604 -0.0025688475 0.14568655 -0.00040824676 0.72696406
-0.0017178147 -0.0061672307 0.85122293 0.043354236 0.15504394 -0.01678633 0.0007756133 0.21945158
0.44519866 -0.00063289993 0.36757645 0.0008005598 0.5230224 0.2150778 0.3415845 0.051424157
-0.0016138236 0.032720063 0.00018708782 0.35310054 0.0027463287 0.00043342367 0.1268204 0.33771658
-0.0011891344 -0.0016813488 -0.020518854 0.05817617 0.0001883651 0.0010993537 0.0015226043 0.13226539
-0.00045049266 1.1384715 -0.00186831 0.13603656 -0.007614674 0.62355834 -0.0028016542 0.017314875
-0.00020216615 0.32786924 -1.9701394e-05 0.24425118 -0.015428084 0.00064234855 -0.0005872841 0.40062076
0.57443124 -0.00071198924 0.56150246 0.56541026 0.0008515644 0.00011796354 0.19797412 0.068515725
0.11189801 0.0007844101 0.03242942 0.28502193 0.55359006 1.8042506 -0.0012562417 0.5514015
1.0968758 -0.0055752415 0.42280042 0.03368737 -0.0009993707 0.032754533 1.2001595 0.51780176
0.6024789 0.8731043 -0.01116197 -0.006412239 0.0013245562 0.33589625 -0.0003049583 -0.0027483834
0.0009383559 -0.0025049124 -0.0013794873 0.00016978204 -0.011488275 0.008309292 -0.00022438657 0.9348063
0.0054042023 -0.0045908047 -0.0009768485 0.17535192 -0.0015875689 0.00033309413 0.26393723 0.0013304339
00000000: 43d9 863a 6193 c9b9 b1d0 0dbb 5461 0d3f
00000010: 3ebe 823e 7836 bd3e 2f35 d03e bc46 2dbd
00000020: b945 3e3f f73b 7bba 876a 04bd 585d a9ba
00000030: 6eac c63d 1ae6 a338 f95a 51ba 2ba9 b9ba
00000040: 306d 9cbb 0c9d 5cb9 caba 6f3e 1ca0 0838
00000050: 3665 54bb fc1a 2c3a f492 d03d fd79 c73e
00000060: 6184 223f a327 8e3f 11fa be39 95fb fc38
00000070: 807c 3fba 957d 213f 09db 0c3a d031 463f
00000080: c0e5 8b3c d459 a33c d062 4f3f ed6a 25bc
00000090: cefd 0dbd 3953 8b3e 189c 283a 2d9a 833e
000000a0: aa4f d53e b7a2 a53a b24e dd3e d655 4dba
000000b0: 7ab7 cb3e fffc ac3e 84c4 e73e ba0d a1bc
000000c0: 11c9 ff39 780a 6bbc 43a6 bc39 5036 cb3e
000000d0: 8e46 d73e bfd0 843a 8f02 0abd 36a9 fd3e
000000e0: a16d 043a 7203 fab9 1b29 d43e bc40 403e
000000f0: 2b3b 3dbb 700f 9639 694c acba 5cc9 02bd
00000100: 1928 08bb 7267 943f fc7e 9bba 9bdb 1fbd
00000110: 2187 b03d bf0a 163f ae74 a93a 944a 473e
00000120: d344 e239 aae7 063f 9474 3b3b c047 603e
00000130: 0a96 8b3e acfa a839 56d8 7c3a c8f8 213f
00000140: 52ff 513f d08a 8eba eea6 133f 8a65 7ebd
00000150: 0c17 0bbb 0b08 91ba bb82 45bd 44a2 58bc
00000160: 73f3 90bc 919d c8ba 1b84 c93e a881 013f
00000170: c1ff e2bd 8c74 d43f 7d78 a5ba 230f 023f
00000180: 553a 523f 9502 123d 8976 263f c8c5 3d3d
00000190: 08e2 d4ba 271a 2b3e 20ca 903f 200d 9a3e
000001a0: 3916 083f 1386 ab3d 217a 133e 439f 523e
000001b0: 8887 fd39 fb0a e13e 19a4 83ba 8edc 023a
000001c0: 81e7 3fba 1566 f4b9 43f6 c438 e607 56bb
000001d0: 8dce f93d 2382 a33e 320b aa3c 9a1a 3a3f
000001e0: 67d6 8a3a 587a f0ba 3df9 28ba 5e03 a6bc
000001f0: d80c 063a 34c1 29ba 7f73 81bc ec1c e4b7
00000200: 23d8 773a c50a 11bb b83c ccba 8efe e83e
00000210: fd86 863b eb7c a23e 999c ee3e 20d6 773e
00000220: 2ab4 e33d cd81 b93a 854d 243e 8b4b cbb8
00000230: 82eb 39bc 0985 8139 4f0d d13a 4cf4 9c3a
00000240: b9d7 d73e 48aa 27ba 775c 2f3e c293 d0b9
00000250: 63a4 f2ba f245 16bb 2050 b13e 5892 cf3c
00000260: 8f09 033f 29a7 953f 0f4e 20bb 84a0 6c3a
00000270: 1c5a 28bb db2e 153e f409 d6b9 511a 3a3f
00000280: 4c28 e1ba 7b16 cabb bfe9 593f 3694 313d
00000290: d7c3 1e3e 7c83 89bc 8752 4b3a eab7 603e
000002a0: 14f1 e33e 32e9 25ba fb32 bc3e a9dc 513a
000002b0: cce4 053f 5b3d 5c3e 2ae4 ae3e 23a2 523d
000002c0: ef86 d3ba 7905 063d 012d 4439 98c9 b43e
000002d0: c0fb 333b 243d e339 35dd 013e 30e9 ac3e
000002e0: bbdc 9bba b460 dcba 2817 a8bc 234a 6e3d
000002f0: df83 4539 3018 903a 1f92 c73a 9470 073e
00000300: 1a30 ecb9 6fb9 913f 15e2 f4ba 2b4d 0b3e
00000310: 8484 f9bb 85a1 1f3f f59b 37bb edd7 8d3c
00000320: 90fc 53b9 7ade a73e 6c44 a5b7 fb1c 7a3e
00000330: 13c6 7cbc 4863 283a f8f3 19ba 2a1e cd3e
00000340: ed0d 133f caa4 3aba a0be 0f3f babe 103f
00000350: 853b 5f3a 3163 f738 bab9 4a3e f951 8c3d
00000360: c92a e53d dfa0 4d3a b6d4 043d 65ee 913e
00000370: 14b8 0d3f aff1 e63f 7aa8 a4ba a628 0d3f
00000380: 6d66 8c3f 84b0 b6bb 4c79 d83e c5fb 093d
00000390: 51fd 82ba 9e29 063d d49e 993f a88e 043f
000003a0: 0f3c 1a3f c383 5f3f b2e0 36bc c21d d2bb
000003b0: bb9c ad3a 98fa ab3e cfe2 9fb9 391e 34bb
000003c0: 00fc 753a 7529 24bb eacf b4ba 8507 3239
000003d0: 5139 3cbc b223 083c 5049 6bb9 774f 6f3f
000003e0: bc15 b13b 766e 96bb 9909 80ba 748f 333e
000003f0: f915 d0ba 23a3 ae39 c822 873e f461 ae3a

layers.3.bias f4 [2]
0.63171184 0.63267034
00000000: deb7 213f aff6 213f
