policy.pkl (torch, 272271 bytes, 6 tensors)

layers.0.weight f4 [256, 4]
00000000: 305f 52bd 981e b13c 3402 0cbf 654b 52bd
00000010: f061 9dbd 14cc 083e 3c28 303e 4097 26bd
00000020: 0325 1dbe c54c 3fbe 0dd6 fdbd 0dfa e83e
00000030: 91e5 593f daf6 003f 3221 85be bfdc ad3e
00000040: 0565 dabe 456d 073e ec5a 10bc bad6 edbe
00000050: a69d f6be 1915 50bd f6ed 9f3c 778c f2bc
00000060: eab1 83be f0bb 0dbf 6dca 3c3e ef10 6bbe
00000070: c8d9 49bf fbfe 89be f98b b53e 0863 773e
00000080: 8776 353c ab8e a53c 8714 5cbe 7871 3a3e
00000090: 423b 503f 1578 c03f 1bec 1640 40ef 893f
000000a0: 1b5f b03f fd34 273f 5ff5 883d 5e3b 453e
000000b0: eccc 6b3e e505 c3be 48fc 41be 847e 2c3e
000000c0: 54cf 2b3f 834d 0a3f d960 113f 8af7 cb3e
000000d0: fb3a 12be 07dd 91bf c6b5 eabf a68e 51bf
000000e0: 1ff2 553e 32eb 20be 1475 b9bd 0032 10bd
000000f0: 8730 a13f 22cd 7fbf d2ac 97bf 0eea 52bf
00000100: 7b6e 8d3e ee85 7cbf c4b2 2bbf 65ef a7be
00000110: 9a77 fe3e 5991 c33e 4b6e 613f 90ef 803f
00000120: 50dc cf3e 346c 80be 923f dfbe 6458 bf3e
00000130: e667 eb3e 973b 97be d2e9 823e 136e 44bd
00000140: 0bed 8c3f 8c51 083f 2377 933d 8778 663e
00000150: fa8b 87bd 5213 493e d6c7 fd3c 5e50 4abe
00000160: 4f37 573f 8369 d23f af72 1340 37a4 933f
00000170: 13b4 d03e 0db9 45be 3417 0cbf eb45 16be
00000180: 28a1 2a3e b165 8cbd 9ab2 b0be 4f8d e53e
00000190: 2038 a23e d5c3 66bf e7bc af3e 2e11 08bf
000001a0: 88bc c7bd 9d76 9f3e aa25 79be 282f 73be
000001b0: d2bd f83c 8119 753d 60c6 053f 02cf c93e
000001c0: e0bb afbe 493d c4bf b718 86bf 38fe 86bf
000001d0: e16a f03e 049a 9fbc 2dea 20bf 7f81 343d
000001e0: ab0e ef3d f7e6 883e aada 863c 521d c33e
000001f0: a015 82be a198 bfbe 0218 a33e e154 c0be
00000200: bfc6 8c3e baae 6cbe c801 6ebe 1f91 7dbe
00000210: 7ca4 5c3e 68dc abbe f0a2 203e e823 adbe
00000220: df0d 1a3f 732f 17bf b22e b73d 5159 59bf
00000230: 82ca 633c 7bdf 65bf 2210 9fbf 4647 2ebf
00000240: 97f0 b33e fb22 4e3e c234 11bf 0f45 d83e
00000250: 16bd 403e 7ddc ddbd 5a11 8dbe e733 e0be
00000260: a0f6 8c3e fbd5 6ebe 2ed6 70be ad4e a8be
00000270: b602 883e 80eb 2ebf 2b5c 15bf 33b0 d5bd
00000280: 729d adbe 6681 303e 0e5f b23e 97f6 b8be
00000290: 9171 7cbe 25ba e6bc af04 6d3e f118 523d
000002a0: 0ab1 81be 1903 183f 27a3 ae3e 8369 13bd
000002b0: 7f05 87be 76b1 90bf 7629 f6bf e752 55bf
000002c0: acb1 b63b 8227 a2be 8285 e4be 01af 66bd
000002d0: 5543 513e 9513 1ebf e22f 36bf c6f2 3ebf
000002e0: 84d6 a4bf 9356 67be 4b11 fb3e f096 db3d
000002f0: 0902 f2be 7e99 dfbf 1346 0cc0 b7f9 98bf
00000300: 8f87 5b3f f92a cf3f 6ff9 1040 3803 923f
00000310: a73a eabe 5360 b3be 43f9 7d3e dec4 99be
00000320: b7bc 663e ef1c 5cbe 8ff3 3bbe 1795 8fbe
00000330: 81d2 0b3f 54bf d4bb 90a0 9abe 2673 cebe
00000340: aa1c 64be 4f1c 29be ce78 1dbf b839 1fbf
00000350: 63a9 a73f b6b9 ea3e b3be 9a3e 2c49 aabe
00000360: 31d9 2fbe 2c79 ce3e 414d c23e 936f 923e
00000370: e7a1 bd3f 8ec4 1d40 e0d7 4040 ba57 e23f
00000380: 6e78 46bd ce24 bfbe 3b86 d53e f00b 853d
00000390: 5bc6 e33f 02e5 9ebe bd63 53bf 74f1 00bf
000003a0: ac37 6dbf e01a b6bd f391 e2be 3326 8c3d
000003b0: c132 ca3e 123b ecbe 4231 7ebe e624 213d
000003c0: c4f5 613f a821 1cbf 08c3 18bf 32cf a5be
000003d0: 32d5 d23d aaae 1bbf a723 bfbd 14f7 20be
000003e0: 80a6 c8bd 4c5b cebe 695b cdbe 9bef d23d
000003f0: 40a3 6a3f 8c4f 31bf c624 61bf b522 d6be
-0.05136031 0.021621034 -0.5469086 -0.051341433 -0.07684696 0.133591 0.17202848 -0.040671587
-0.1534615 -0.18681629 -0.123943426 0.45503274 0.85115916 0.50376666 -0.2600189 0.33957478
-0.42655197 0.13225277 -0.00881074 -0.46452886 -0.4816715 -0.05080137 0.019522648 -0.029607994
-0.25721675 -0.55364895 0.18436594 -0.22955678 -0.7884793 -0.26952347 0.35458353 0.24158871
0.011075622 0.020209631 -0.21492206 0.18207347 0.8134042 1.5036646 2.3581607 1.0776138
1.3779024 0.6531523 0.06687426 0.19260928 0.2302739 -0.38090435 -0.18943894 0.16845137
0.6711323 0.54024523 0.567884 0.39837295 -0.14280312 -1.1395577 -1.8336723 -0.8185829
0.20893143 -0.1571472 -0.09055534 -0.035203934 1.2592934 -0.9992238 -1.1849616 -0.8238839
0.27623352 -0.9864186 -0.6706965 -0.3279983 0.49700624 0.3819683 0.8805892 1.0073109
0.40597773 -0.25082552 -0.43603188 0.37372124 0.45977706 -0.2953765 0.25569016 -0.047956537
1.100984 0.5324943 0.07200458 0.22506915 -0.06618495 0.19636276 0.030979078 -0.1975722
0.8406877 1.643845 2.3038747 1.1534489 0.40762386 -0.19308873 -0.54722905 -0.14675109
0.16663039 -0.068553336 -0.34511262 0.44834372 0.31683445 -0.90142566 0.3432381 -0.53151214
-0.09752756 0.31145182 -0.24330774 -0.23748457 0.03036395 0.059838776 0.5225582 0.39415747
-0.34323025 -1.5331203 -1.0476292 -1.0546331 0.46956542 -0.01948262 -0.62857324 0.04406881
0.116727196 0.26738712 0.016461689 0.38108307 -0.25407124 -0.37421134 0.31854254 -0.37564757
0.2749538 -0.23113528 -0.23242867 -0.2476239 0.21547121 -0.33566594 0.15687156 -0.33816457
0.60177416 -0.59056777 0.08944453 -0.8490191 0.013903262 -0.8979413 -1.2426798 -0.68077505
0.35144493 0.20130531 -0.5672113 0.42240188 0.1882213 -0.108330704 -0.275523 -0.43789598
0.2753191 -0.23323815 -0.23519203 -0.32872525 0.26564568 -0.68328094 -0.5834376 -0.10433998
-0.33909184 0.17236862 0.34838146 -0.36125633 -0.24652697 -0.028164933 0.23146318 0.051293317
-0.25330383 0.59379727 0.3410885 -0.035989296 -0.2637138 -1.1304157 -1.9231403 -0.83329624
0.0055753794 -0.31670767 -0.44633108 -0.05631924 0.20435841 -0.6174863 -0.71166813 -0.7458919
-1.2877965 -0.22591619 0.4903663 0.107221484 -0.47267178 -1.7468717 -2.191777 -1.1951207
0.8575372 1.6184989 2.2652242 1.1407232 -0.45747873 -0.35034427 0.24802117 -0.3003301
0.22532926 -0.21495412 -0.18354629 -0.28043434 0.5461808 -0.0064925347 -0.30200624 -0.40322226
-0.2227656 -0.16514705 -0.6151246 -0.62197447 1.3098568 0.4584481 0.30223617 -0.3325895
-0.17172696 0.40326822 0.37949565 0.2860075 1.4815034 2.4651217 3.013176 1.7683022
-0.048454694 -0.37332767 0.41703972 0.064964175 1.7794908 -0.31034094 -0.82574064 -0.5036843
-0.92663074 -0.08891845 -0.44251975 0.068432234 0.39491847 -0.46138817 -0.24823478 0.03934183
0.88265634 -0.60988855 -0.59672594 -0.3238464 0.1029457 -0.6081339 -0.09332972 -0.15719253
-0.09797382 -0.4030403 -0.40108803 0.10299607 0.9165535 -0.69262004 -0.87946737 -0.41823354

layers.0.bias f4 [256]
00000000: bcf7 fa3e 602a bcbe 1996 35bf cfac 1abe
00000010: b714 abbe fb62 91bb 559d 98be f414 6fbd
00000020: 02a3 eabe f2b4 44bd 94f4 8dbe 9824 2dbe
00000030: b0c1 05be a558 10bd d09f 4f3f dcff 31be
00000040: c590 483f 95d3 c7be 70ce db3e 258b de3d
00000050: 7fe6 37be 9004 c7be a54c cbbd 3e22 f9bd
00000060: bf79 273f a3bb ec3e 6391 85be 3945 b0be
00000070: 2dae 04be dae7 543f 6883 103f 103c 913d
00000080: e8a2 9b3f 7c9a d4be 4920 953e dadb c6bd
00000090: 0881 323f a5cf adbe d565 8c3f ca59 343f
000000a0: 6df2 12bf 2c59 853f c3bf 433f e083 eabd
000000b0: 3b4d 293f c235 a43f 6552 153e 0c98 173d
000000c0: d67a 8dbd f732 bcbd 6b7c 2c3f f96e 65bd
000000d0: b22b 90be 485d ecbe 4ce7 92be 5e20 293d
000000e0: 4788 773f 1e7c 23be 90d2 d13c 7c62 37be
000000f0: d350 48be 412e 1e3f b532 c6be 17c3 51be
00000100: d7cc 35be f254 c1be a2f7 36be 6eed 77bf
00000110: 16ad f8be 0695 183d faba 8f3f 4ba5 0dbe
00000120: d726 d2be 16b6 783f 8fc9 93be d142 0cbe
00000130: e4fb 6ebe cd7a 993e 7dd3 363f 334d 93be
00000140: a09d 903f ad43 68be 6053 8d3f a1db 693f
00000150: 075f 08bf 2a74 6abf 9740 94be 6f14 d6be
00000160: 15ff 853e 967e 0bbf d344 1bbe 7f2d 53be
00000170: 26bf 923f 6eef a13f 5920 173e bc54 13bf
00000180: de4e 66be d2e9 163f 69c8 0a3f fe27 653f
00000190: e7af 8b3f f98d d4be 25fd de3f 97f2 43bd
000001a0: 1233 00be 49eb 7e3f 2713 713f a0a2 1cbf
000001b0: d801 313f 327f 563f f042 00be ec52 c63f
000001c0: 13dd 4c3f ed3e b33d 833a 07be 55b0 563c
000001d0: 7cc8 afbe 0252 173d 1b91 6d3f 5b47 903f
000001e0: 5854 debe 9cd8 053f c47b 6d3e b122 61bf
000001f0: 497f bf3f 4c91 80be d55b 1cbd 986b 53bd
00000200: 3585 20be f496 473d 57a5 433f 4936 21bf
00000210: 8d95 59be b0a8 d0bf ffec 9abe 0178 d6bf
00000220: a338 463f 9681 0cbf 24f5 c6be b9fd bbbd
00000230: f34b 4a3f 012f 8c3f 9c0a 6e3f 9e85 b23f
00000240: 455a a6bd 4d8a 8abe 0cf0 5a3f 16e4 1e3d
00000250: 4ef0 2abe 263b efbe 919e c53f 9b22 993e
00000260: 0d7e 44bf 9421 07bf 7a69 81bf 9907 fe3e
00000270: 87e1 a6bc 6518 9d3e 27a0 983f fcdf 163f
00000280: 7a93 27bf 337e 5e3f dcf1 fcbe 4bd7 cabe
00000290: 7efe 03bd fb6a d2be d936 02bf 0145 1b3b
000002a0: 2ac2 e53e 0242 a9bd ce3f 223f 36fa b73e
000002b0: dca1 193f 44b2 623f 5dd1 68be d939 f8be
000002c0: e2c4 ad3e 81a4 433f d8f3 1f3f d397 86be
000002d0: b10e 05bd e718 fcbe f6ef e23d 16d7 24be
000002e0: a717 343f d76f 9d3f 63ea 6b3f ae16 2cbe
000002f0: e45e c8be fed9 46be d4f4 9c3e f255 4fbf
00000300: 673b 8fbe 1272 5c3f d628 f7bd 70d0 1d3f
00000310: d8f8 87be aea6 97be a85e 21be 1c05 b9bc
00000320: b3d0 edbe 01ba 26bf 0ca7 39be d05a 27be
00000330: e4a6 b0bf 4626 783f 0d3e b3bd a09c 14be
00000340: e1c8 c4be 31e8 043f bd82 b9bf af44 023d
00000350: 7500 e6be f90f 353f 6e96 9c3f 2753 aebe
00000360: c259 adbf 89e8 7fbe c1c0 e2be 3ab7 32be
00000370: ed54 fbbd bb1e 85bd 731a fa3b 5a03 413d
00000380: d3e9 a8bd e2fa 0bbe 04bd 5cbf d9c8 663c
00000390: 31f6 8b3f d0ca 833f 84d5 4d3f e3f4 513f
000003a0: 10ef 363f 3643 8e3e 5cca 863f b9bd 803f
000003b0: 02d4 eb3e 9668 bdbe f953 08be 9f35 663c
000003c0: ae02 94bd 47a2 d9be bc45 19be e57c 613f
000003d0: c1b5 6ebd 3b4b 10be af6b 543f 2401 843d
000003e0: 2499 bb3e 8adc 4abe 27cd 3e3f 92ae 1bbe
000003f0: 9ee1 ef3c 94f1 17be 5df8 003e 4433 51be
0.4901713 -0.3675108 -0.70932156 -0.15104984 -0.33414242 -0.004436848 -0.29807535 -0.05836959
-0.4582749 -0.048024125 -0.2772566 -0.1690849 -0.13062167 -0.035240788 0.8110323 -0.17382759
0.783459 -0.39028612 0.42930937 0.108663835 -0.17959021 -0.38870668 -0.09926728 -0.12164734
0.65420145 0.46236905 -0.26087484 -0.34427813 -0.12957068 0.8316628 0.5645051 0.07091534
1.215909 -0.41524112 0.29126194 -0.09709902 0.69728136 -0.33947483 1.0968577 0.7044951
-0.5740116 1.0417838 0.7646448 -0.114509344 0.6613347 1.2828906 0.14582212 0.037010238
-0.06908195 -0.09189408 0.67377347 -0.056014035 -0.28158337 -0.46164918 -0.2869209 0.041290633
0.9669232 -0.15965316 0.0256131 -0.17908663 -0.19562082 0.6178933 -0.3871056 -0.20484577
-0.17753921 -0.3776012 -0.17867902 -0.96846664 -0.48569554 0.037251495 1.1228936 -0.13832586
-0.41045257 0.9715284 -0.28864715 -0.13697363 -0.23338276 0.29976502 0.71416456 -0.28769836
1.1298103 -0.22682066 1.1041069 0.9135075 -0.5327 -0.915835 -0.28955528 -0.41812465
0.26171175 -0.5449003 -0.15162973 -0.20622824 1.1464584 1.2651193 0.14758433 -0.5755117
-0.22491023 0.5895053 0.5421205 0.8951415 1.0913056 -0.41514567 1.7421004 -0.047838774
-0.12519482 0.99577767 0.9416985 -0.61185646 0.6914344 0.83787835 -0.12525535 1.5494056
0.8002483 0.087522365 -0.13205914 0.013103564 -0.34332645 0.036943443 0.9279954 1.1271776
-0.43423724 0.52283645 0.23191744 -0.8794356 1.4960719 -0.25110853 -0.038173515 -0.05161628
-0.15675814 0.048727944 0.76424164 -0.6297346 -0.21248455 -1.6301479 -0.3025894 -1.6755372
0.7743017 -0.5488523 -0.38858902 -0.09179253 0.7902214 1.0951844 0.9298494 1.3947027
-0.08122686 -0.2705864 0.8552253 0.03879174 -0.16693231 -0.46724814 1.5439016 0.29909214
-0.7675484 -0.5278561 -1.0110314 0.49615172 -0.020371212 0.30682674 1.1923875 0.58935523
-0.65459406 0.86911315 -0.49403274 -0.3961738 -0.032225125 -0.41097245 -0.5086494 0.0023692253
0.44874698 -0.08264543 0.6337861 0.35933083 0.600126 0.8855326 -0.22736116 -0.48481634
0.33939272 0.7642289 0.6248145 -0.26287708 -0.032484714 -0.4923775 0.11080925 -0.16097674
0.7034859 1.2299756 0.9215452 -0.16805527 -0.39134896 -0.19419095 0.3065554 -0.8099052
-0.27975008 0.8611156 -0.12068336 0.61646175 -0.2655704 -0.29619354 -0.15758765 -0.022585444
-0.46448287 -0.6512757 -0.1813013 -0.16343236 -1.3800931 0.969334 -0.087520696 -0.14512873
-0.38434508 0.51916796 -1.4493023 0.031803783 -0.44922224 0.707275 1.2233407 -0.34047815
-1.3543017 -0.24991049 -0.44287685 -0.17452708 -0.12272058 -0.06500002 0.0076325475 0.047122337
-0.082477234 -0.13669923 -0.86225915 0.014085972 1.0934507 1.0296268 0.80403924 0.8201429
0.7145853 0.27785653 1.0530505 1.0057899 0.46060187 -0.36993855 -0.13313283 0.01405087
-0.072270736 -0.4250662 -0.14968008 0.880812 -0.058278803 -0.14091198 0.8297681 0.0644553
0.36640275 -0.19810691 0.7453179 -0.15203312 0.029282387 -0.14838248 0.12594743 -0.20429713

layers.1.weight f4 [256, 256]
00000000: 1248 21bd d83d be3c 0162 d13a cac2 6c3d
00000010: 9ed8 bebb c054 7abd 0890 193d a28d 30bd
00000020: 8f71 3fbd b83d b03c 8c0d 3c3d dbff 54bd
00000030: 78ea b0bc a17d 0e3d e5b6 83bb ffb1 07bc
00000040: f6da 8ebb ada4 a0bb 85dd ddbc 94b5 e4bc
00000050: 2ae8 413d 6df5 123d ef3e b33c 40e2 2d3d
00000060: ea84 2c3d 1528 ae3c 04be 20bd 8138 d6bc
00000070: 336c 12bd 8699 c63c 4218 24ba 1074 45bd
00000080: bb46 303d cc3b a23c 5966 803c dde0 073c
00000090: 9df2 e13c 29fd 66bc 99e4 363b b3b2 2ebc
000000a0: beb6 873c 06e1 17bd 3218 063c 96d8 33bd
000000b0: 7323 9f3c 5e9b d33b 7f74 113d 2908 123d
000000c0: 7d84 f73c 65fc 293d 5348 22bd fe33 813d
000000d0: 70eb dc3b a71d 9c3b 77ec 483d 7dc2 05bd
000000e0: b61f b7bb 257f 403d f1a8 03bd 65fd 413d
000000f0: c892 f03b fb37 ad3b e947 4e3d 39ec 1cbd
00000100: 11e7 5d3d 5ad5 0ebd f7dc 813c 40e0 f7bc
00000110: e80d 623c 5aec 03bd 9afc 4e3d 024f 373d
00000120: 9f85 39bd 56db b93b 2e0d 553d 7e44 83bc
00000130: 2556 453d 2df5 853c 5f6d 0fbd 7b8b 46bc
00000140: 06ab 83bd a9ad 06bd 578c 71bd 1adc 0d3d
00000150: 7d76 663d d648 5ebd aa9d 8b3b 7b46 4d3d
00000160: dc62 ddbb fd17 683d 6705 00bd 3754 3e3c
00000170: 21e7 a2bd 2808 2fbd 80c1 e9bb 167e aa3c
00000180: 11db 0c3d 7c20 f53c ccfc e0b7 c2f9 193d
00000190: 0357 e9bc cabd 17bd f93a 233c 49a1 933c
000001a0: 3d34 3e3c 4c32 58bd 2fbc a03c fc2b 8dbb
000001b0: cd9e f33c 8773 203d e961 8a3d 4d92 38bd
000001c0: 81cd 20bd 8839 76bd fde2 6bbc 8ecd ad3c
000001d0: 7707 e4bc ff38 5a3d 50a7 08bd dcbd 52bd
000001e0: 556a 6e3d 0407 5ebd 6bcd 66bd fc67 9f3d
000001f0: cfc2 023d 98b5 933d 66f1 29bd 4b90 79bd
00000200: aa9f 40bd 5426 6abd c542 84bc 0fb4 143c
00000210: db79 203d 0c05 4dbb 2439 3e3d 2ac5 343d
00000220: b933 99bc 4e50 a63c 29e3 82bc a3e1 c7bc
00000230: 1e1d 8abd c05d 1fbd dec1 98bd beba 023d
00000240: 250e a5bc 79ce 773d 49d3 8abd 42d2 0fba
00000250: 3441 353d 83ae 03bd cc07 b03b 0371 423a
00000260: a806 fcbc 3e1a d9bc 0c21 923d 3216 cdbc
00000270: befb 883d e145 fb3c 5091 a83c 46d6 d83c
00000280: a424 dcbb 5071 40bd 3b8b 8f3d a5e1 9dbc
00000290: bc8b 84bd a668 fc3c 50e6 76bd bc60 c93c
000002a0: 394f 0f3c 6fe5 4f3d b21e 83bc e885 063c
000002b0: 2055 4abc c49c c3bc e08d e0bc 16fb 803d
000002c0: 4785 ef3a c1a8 463d 395a 7dbd 1c1b 22bd
000002d0: 456e b03d 7a47 3fbb 0787 83bd cc25 abbb
000002e0: 38fe 85bd 6384 c2bc 5507 3fbc faf4 543d
000002f0: a175 5c3d e60b d1bb a115 0dbc ff65 bfbc
00000300: 2d98 fe3b c3a2 fcbc cf16 133d 0fda 13bb
00000310: c62a 883d d29e de3c 5fae 963c 6622 02bd
00000320: 7b69 20bc 310d 633d f9d4 2a3c 3b67 f6bb
00000330: b2a6 333c 91b7 023d 9438 58bc 62df 7d3d
00000340: 05c3 29bd 6fe0 913c 4a3f bd3d 12b7 c33c
00000350: 9517 e1bc 08ad 643b 7983 7cbd 040f 503d
00000360: f84b 913d 51d8 5c3d e1c9 4c3d 0d38 6dbc
00000370: bbf8 bbbc a2f8 093d beb3 943c 4447 083d
00000380: 4a9a 013d f07c f13a 5c7b 4dbc 9292 083c
00000390: 984c a5bd 9d74 66bd b4c6 863c 52ce e4bc
000003a0: 840c 4fbd 7e74 043d eb3c 983c d93f e5bc
000003b0: 1d89 02bd f32d 693c 6d95 fabc 4f0d 2abc
000003c0: 59dd 013d b774 e63c aa03 80bd d9b1 dbbc
000003d0: 64fc 4ebd f149 1e3d f7a6 f6bc dcd8 cf3b
000003e0: 76bf 033d a907 aebc 5182 b8bc e1b0 b7bc
000003f0: 9844 6c3c a065 493d 9e2f 3dbc 1d2b 083d
-0.039375372 0.023222849 0.0015974642 0.057802953 -0.0058241626 -0.06111598 0.037490875 -0.04310382
-0.046739157 0.021513805 0.045911357 -0.052001815 -0.021596178 0.034787778 -0.0040196055 -0.008282184
-0.0043595983 -0.0049024434 -0.027083168 -0.027918614 0.04734055 0.035878588 0.021880595 0.042452097
0.042118944 0.021259347 -0.039243713 -0.02614999 -0.035747718 0.024243128 -0.0006259718 -0.04820639
0.043036204 0.019803904 0.015673803 0.008293358 0.027581507 -0.014098444 0.002790725 -0.010662722
0.01656663 -0.037079833 0.00818448 -0.043907724 0.019426083 0.00645773 0.03551149 0.035652313
0.030214543 0.041500468 -0.039619755 0.06308745 0.0067419335 0.004764277 0.049053635 -0.03265618
-0.005588497 0.046996254 -0.032143537 0.047360796 0.0073417164 0.0052862144 0.050361548 -0.038311217
0.05417544 -0.034871437 0.015852435 -0.030258298 0.013797261 -0.032207824 0.05053387 0.044753082
-0.045293447 0.005671899 0.052014522 -0.01602387 0.048177857 0.01635226 -0.035016414 -0.012118216
-0.064291045 -0.03288046 -0.05897173 0.034633733 0.056265343 -0.05426868 0.0042607384 0.050116044
-0.0067561697 0.056663502 -0.031255152 0.011616758 -0.079542406 -0.042732388 -0.0071336627 0.020812076
0.034388606 0.029922716 -2.6820599e-05 0.037591703 -0.028483873 -0.03704623 0.009962791 0.018021243
0.011609134 -0.05278234 0.019620983 -0.004308222 0.029738808 0.039172675 0.06756956 -0.0450614
-0.039258484 -0.06011346 -0.01439738 0.02121618 -0.02783559 0.053277012 -0.033362687 -0.051450595
0.058206875 -0.05420591 -0.056348246 0.07783505 0.031924065 0.07212371 -0.04148998 -0.060928624
-0.047027268 -0.05716546 -0.01614512 0.009076132 0.03917871 -0.0031283526 0.046441212 0.044133343
-0.018701421 0.020301964 -0.015977459 -0.024399584 -0.06743835 -0.038907766 -0.07458852 0.031916372
-0.020148346 0.060499642 -0.06778581 -0.0005486348 0.044251636 -0.03214885 0.005372023 0.0007417353
-0.030764893 -0.026501771 0.071352094 -0.025034998 0.06688641 0.03067297 0.020577103 0.026469361
-0.006718235 -0.046983063 0.07008978 -0.019272635 -0.06471965 0.030811619 -0.060278237 0.02458226
0.0087469155 0.050755914 -0.016005848 0.008210637 -0.012349397 -0.023878463 -0.027411401 0.06297891
0.0018273973 0.04850078 -0.06185362 -0.039576635 0.08614782 -0.002918689 -0.06422239 -0.0052230116
-0.06542629 -0.023744768 -0.011659463 0.05199144 0.053823117 -0.006379592 -0.008611114 -0.023364065
0.0077696056 -0.03083933 0.035910424 -0.0022560393 0.066487834 0.02717534 0.018393693 -0.031771086
-0.0097907735 0.055432502 0.010426753 -0.0075196302 0.010965036 0.031913344 -0.013197083 0.061980613
-0.04144575 0.017807214 0.09240587 0.023891006 -0.027477065 0.0034893174 -0.06164882 0.05079557
0.07094568 0.053917233 0.049997214 -0.014478696 -0.022945752 0.03368438 0.018152114 0.03327109
0.031641282 0.0018424075 -0.012541618 0.008335726 -0.0807125 -0.056263555 0.01645217 -0.027930412
-0.050549045 0.032337658 0.018583735 -0.027984546 -0.031869043 0.014232147 -0.03058883 -0.01037915
0.031705234 0.028131826 -0.06250699 -0.026818203 -0.050533667 0.038644735 -0.030108912 0.0063429903
0.032165013 -0.021243887 -0.022523077 -0.02242321 0.014420651 0.049169183 -0.011546997 0.03324424

layers.1.bias f4 [256]
00000000: dfd2 28bc 6a8f 1b3c a83e 14bd e016 f13f
00000010: 73a5 ddbb 6289 203e 1be2 58bd 96fc f13e
00000020: 8b17 0f3c fbe4 103f feb8 e2bc ddb1 493d
00000030: 7b47 65bd 1b28 9c3f ebf9 be3e 5cfa fb3d
00000040: 12a2 963f 8dd1 c83f 48b6 95bd 2546 48bd
00000050: b783 923d 9908 733f 8159 f63e 2fe4 593e
00000060: 4029 1c3d 34c1 033c 569c d9bd 7117 703e
00000070: d38e 8b3c 5abc ad3e 4148 76bd 88d8 243d
00000080: 50c2 d03c f59b 853f d07f c9bd ef26 5e3e
00000090: d98f ea3b e22f c33e c5f6 9f3f f406 0e3f
000000a0: cd43 873b 7595 d5bb fd96 0740 c92e d0bd
000000b0: d1dc 30bc 83ce eb3e cedb 11bd 0d20 0cbb
000000c0: 2f65 203f c570 4abc a7d0 bf3c 5f86 c83c
000000d0: b812 c53c 34b8 0540 5ebf d63f af3f 553f
000000e0: c4af f0bd eb3a 263e bc8a 12bd d7c6 93be
000000f0: 3c29 573d c8d7 643f 39da 1fbe 59f1 fabc
00000100: 1a84 2e3e 7ac6 433c fc02 3cbb d0dd 963d
00000110: 7476 c23f 7c83 c63e 89c8 233f 0e16 553b
00000120: 7b4c 9f3d d703 c4bd b25b 153f d609 fe3e
00000130: e7ef 8f3f 900e ba3d 5672 403d de0a 283e
00000140: 01b6 553f ae93 863c 4322 973d 2c72 f8bd
00000150: 2f71 893d de66 3540 81e2 7b3d 64c6 903e
00000160: 2581 a03e e61e 9f3d 9ef6 183f 3437 b93f
00000170: e5e7 8f3d 6326 09bd 9156 aebd 7259 413f
00000180: 5a6c 243f ed0c 1b3f 0ded dabc 826b 08bd
00000190: 5205 163e 67d1 62bd ab10 ea3d 8a5c b03e
000001a0: c5f4 71bd ed90 493d ae11 11be b463 023d
000001b0: 3919 5d3f 2198 c23c b929 60bc 3435 79bd
000001c0: 928b e83f f2dc 80bd 3527 19be 69c6 163e
000001d0: 0e52 acbc 2eca f1bb 4e68 e33d 435a 20be
000001e0: ba29 983f 97a2 083c a863 d73c ce17 413e
000001f0: 1c66 77bd d384 8cbd 8a59 b7bc 55a8 603f
00000200: d5d2 173e 97be 73bd 15d8 9f3e cfa4 72bd
00000210: 7837 0abe 2797 573d a467 df3e 8bb8 62bd
00000220: 8408 a93f 70e2 11bc cdc7 5f3e f09e 02bc
00000230: b295 fb3d dcc1 88bd 5db7 233f 1d17 93bd
00000240: 470d 40bc eec0 58bc 1eb3 2abd 5ed1 093e
00000250: 8640 1c3c 3189 d73f 6cf4 923f 3a2f d93f
00000260: b1f3 183d 557b 143f 80fb ad3c 76ed 973b
00000270: 94bc 993f b590 d53e 1df5 05bd 2be6 ea3e
00000280: 42ba 1c3f 2fed a73d 4008 833d 0887 1d3f
00000290: 1abf 373f 490b 853c 8e33 08bc d971 513f
000002a0: f9fd e23c 6e25 cb3c d6e8 6b3f 2351 103f
000002b0: d5b1 c13f 14e3 d3bc c1ad 7a3d 5024 9e3c
000002c0: b8d9 103f a747 0840 49c0 c4bc dc15 01be
000002d0: 2d97 9e3d 8f80 eebc 9baa cb3d 5c2a 4e3d
000002e0: be3c 06bc e855 9cbd 7162 223f 2464 67bd
000002f0: 106a a93e 5b07 9a3d db25 1ebd f6d6 4638
00000300: 2504 963e 6cf1 a63f b82b 6e3d 236c d53d
00000310: f07f b23f 0c54 b1bd 8a8d be3d 2b49 88bc
00000320: a434 5a3e 6879 563f f728 4e3e ecbd 863f
00000330: f772 a33c 14bb 343f 2e2a 3c3f 99c5 d2bd
00000340: efe0 fd3f bf6a 7f3f 2f05 0540 c648 363e
00000350: a9aa d53c 2698 3f3d 028d babd 14e6 9ebc
00000360: 98e7 0dbd 915b d73e c60f 053e decc 2740
00000370: a2c3 5ebd efc2 003e d61a 633f e7ea ac3f
00000380: 7a6c 713e c5ab 0cbe 5cf7 9dbd 9a54 a93c
00000390: 6078 5e3f 496b b2bc 4496 553f 55b9 653b
000003a0: 78e1 ec3c 0cac 013d 2dde 3f3c e9d9 723f
000003b0: 161b 103e f342 5c3d 0ea1 363f 5051 933f
000003c0: 7f1d 433f a47c 8c3d 075d 913f ca97 2e3c
000003d0: b501 2dbe bd6a b2bd 4454 16bc a47b 133f
000003e0: b159 493f 8422 583d 7a83 4b3f fe62 33bd
000003f0: 7c82 a1bd d457 1340 6473 a33d 50eb 433f
-0.010304182 0.009494642 -0.036192566 1.8835106 -0.006764108 0.15677407 -0.052950006 0.4726302
0.00873364 0.56599396 -0.027676102 0.04924189 -0.055976372 1.2199739 0.37300047 0.12303612
1.176821 1.568895 -0.07310158 -0.04889502 0.07154029 0.94934994 0.4811516 0.21278451
0.038125277 0.008041669 -0.10625522 0.23446442 0.017035877 0.33932763 -0.0601275 0.040245563
0.02548328 1.0438219 -0.098388314 0.2169454 0.0071582613 0.3812247 1.2497183 0.5547936
0.0041279555 -0.006518061 2.1185906 -0.101651736 -0.010794834 0.46055993 -0.035610013 -0.0021381408
0.62654394 -0.012355988 0.023414923 0.024478136 0.024056777 2.0893679 1.6777151 0.833003
-0.11752275 0.16233413 -0.03577684 -0.2886264 0.05252956 0.89391756 -0.15610589 -0.030632662
0.1704258 0.011949176 -0.0028688302 0.07366526 1.5192399 0.3877219 0.6397787 0.0032514366
0.07778259 -0.09571045 0.5834304 0.4961688 1.1245087 0.09084809 0.04698404 0.16410396
0.8348084 0.016427841 0.07379582 -0.121311516 0.06711041 2.8344035 0.061495308 0.2827636
0.3134853 0.07769565 0.5975131 1.4469972 0.07026652 -0.033483874 -0.08512605 0.7552711
0.6422783 0.605666 -0.026724363 -0.033305652 0.14650467 -0.055375483 0.114289604 0.34445602
-0.05907132 0.049210478 -0.141669 0.031833366 0.8636661 0.023754181 -0.013681822 -0.060841754
1.8167593 -0.06292142 -0.14956363 0.14724125 -0.02103522 -0.007378838 0.11103879 -0.15659432
1.1887734 0.008339546 0.026292637 0.18856737 -0.060400113 -0.06861272 -0.022381563 0.87756854
0.1482652 -0.059507933 0.31219545 -0.059239205 -0.13497722 0.052634384 0.4363376 -0.055351775
1.3205724 -0.008904085 0.21853562 -0.007972464 0.122844115 -0.06677601 0.63951665 -0.07182143
-0.011721916 -0.013229592 -0.041674726 0.13458773 0.009536868 1.6838742 1.1480842 1.6967537
0.037341777 0.5800069 0.021238089 0.004636462 1.2010674 0.41711965 -0.03270446 0.4587873
0.61221707 0.08199536 0.06398058 0.61534166 0.7177597 0.016240733 -0.008313073 0.8181434
0.027708994 0.024798121 0.92152154 0.56373805 1.5132395 -0.025865115 0.06120086 0.019304425
0.5658221 2.1293733 -0.02401747 -0.12605995 0.07743678 -0.029114036 0.0994465 0.050333366
-0.008193193 -0.07633573 0.6343146 -0.056491986 0.33088732 0.07520934 -0.03861032 4.7407077e-05
0.29300037 1.3042426 0.058147162 0.10421016 1.3945293 -0.08658609 0.0930434 -0.016636452
0.21309143 0.83779 0.20132814 1.052671 0.01995228 0.7059796 0.7350186 -0.10291595
1.9834269 0.99772257 2.0784414 0.17801198 0.026082354 0.04677596 -0.09108926 -0.01939682
-0.034644693 0.42062047 0.12994298 2.621879 -0.05438579 0.12574361 0.88712823 1.3509187
0.23576537 -0.137374 -0.07713196 0.020670224 0.8690243 -0.021779673 0.8343241 0.0035053093
0.028916106 0.031658217 0.011710686 0.94863755 0.14072832 0.053774785 0.713395 1.150919
0.7621688 0.06859711 1.1356515 0.0106563065 -0.16895182 -0.08711765 -0.009175364 0.57610536
0.78652483 0.05276729 0.7949749 -0.04379558 -0.07886216 2.3022356 0.079809934 0.76530933

layers.2.weight f4 [2, 256]
00000000: 4284 14be 789e 46be 8b20 8fbb 3141 e63f
00000010: acbf 8cbd ff03 a43d 0369 5abd 6578 583f
00000020: f6a7 af3c bc49 463f 4a10 eb3b 0ee5 193e
00000030: bad3 5bbe aaa9 b53f 708f 9b3e ec2d 23be
00000040: 18fc 8a3f 059f e03f d997 debe 5037 99bc
00000050: e3e4 ec3e ebd0 853f b572 a23e 8251 333f
00000060: 19f5 843c 4fd6 c3bc 2892 e1be b440 eebd
00000070: 86b6 453e a2ab d7bd a4d0 78bd d89b 0abd
00000080: 72d3 38be 23ff 5f3f bf94 54be a3f0 2b3f
00000090: b7bd 97be eb75 2a3f 8150 bd3f 2314 b13e
000000a0: 3350 3abd ec47 21bd 0ab6 0740 16ea 7fbe
000000b0: 8117 14bc 76e5 e13e 6240 c73c 92ed 073f
000000c0: 5603 443f 4144 803d 35e9 8fbe 2b22 153d
000000d0: 18b2 9c3c eb64 0b40 9e84 ba3f 47aa 753f
000000e0: 81d8 fcbe 9d54 ed3e 0af6 683d 920f 57bf
000000f0: 501d f4bc 79ba cc3e 145b aabd ccf0 88be
00000100: d993 7abe db6c f1bc 87d7 6c3e dcf6 703e
00000110: 22af c93f 85ce 5b3f da46 193f 1f28 88be
00000120: 2cc3 063c 6860 2bbe 3a4c 193f b539 103f
00000130: b75f 973f 151a 1a3f 830e be3c 7475 bb3e
00000140: 0d78 803f dfc3 91be 8174 17bf 91d1 46bf
00000150: 2d60 023f fc9b 3b40 6491 d23e 9f14 4f3f
00000160: 2c91 833e 04dd 47be 9b0c 4b3f 6e3a ca3f
00000170: 877a 003d a95a 5ebc ea0f f8bd cfa5 5e3f
00000180: d315 ac3f c49b 223f 4a5c 7ebe ab34 87bd
00000190: 2a96 b03d 630a 83bd f9fe 9b3d 967b c43e
000001a0: 32dd 4fbd 13ff 9ebd 65f5 52be 8b65 533e
000001b0: 1e44 c93f 7bdc 89be c7b9 303f aa15 003a
000001c0: 83a6 1940 5bba 94be 47a4 9ebe e2d4 723f
000001d0: 2ca8 763d 48a0 78be 015e b0be 7d73 b43d
000001e0: 80ed bb3f 0a78 c13d ba08 a33d 8d25 a73e
000001f0: 5c30 65bd fe1b e03d feef 27bd 5302 3f3f
00000200: 704c f23d b8bf 77bc 355d 0d3e 3724 05be
00000210: 910b ebbd 942d b0bc 497f 5e3f 0c6b 2d3d
00000220: a2da b53f 1907 00bc 6faf 513f 6474 abbc
00000230: 84d0 fcbe ad4a 89bd c3b1 033f 785a 0fbf
00000240: 22b2 2dbe d595 a6bd f106 8d3d 0647 49be
00000250: 5418 8ebc 532a ec3f 076c 8a3f f8e1 ba3f
00000260: 7393 453d db36 4e3f 30ca 10be 808f 68bd
00000270: 9998 a23f 6519 8e3f cc01 043e 1713 c73e
00000280: 609f 663f e5b9 dd3c f200 863e 92f6 533f
00000290: 2580 a43e 189c 203c c8e5 ff3c e757 a63f
000002a0: 53b6 19bd 4049 edbc 0bcc b63f e64e 883f
000002b0: 4d28 ab3f 2064 00bb 9106 fd3c 5704 38bd
000002c0: 546c 2c3f cd35 0840 aed6 5dbd e3dc 03bd
000002d0: 1f4d 023e f8a3 15bd 1113 653e 1c13 233c
000002e0: 60e8 15be bc53 e6bd 6afa 493f 400d 00be
000002f0: 78ef 273f e42e 5e3d 1a12 0d3d c4f3 913d
00000300: ba52 90bd c124 9a3f 67e6 34bd 8be0 81be
00000310: 6b50 cc3f da98 e6be 59d4 063f e33f bfbc
00000320: 0971 0d3e c594 7f3f c5cf 4b3f 4e8a a93f
00000330: afaa 513d dd84 273f 47bc 1a3f 3110 bc3c
00000340: 3c37 0340 cda5 533f c5b1 0940 497e 59be
00000350: 0e22 a1bc 6500 36bd dda7 c2be 0294 aa3c
00000360: e84e 363e c77a ee3e 451b 953e c0bf 2840
00000370: 6920 033f b8ac bd3e 9080 523f 3144 bf3f
00000380: 844d 813e 1024 f4be 58ab 91be 7a2e a1bc
00000390: e41f 473f 9d25 c33c c113 233f 756a a9be
000003a0: fd21 543c 933c ec3e b895 cf3c 861e 973f
000003b0: d144 cc3e 94bd 9e3d 90f2 443f 8527 8a3f
000003c0: 33b7 383f 6dbb 5a3e 252f 7f3f 710f a9bd
000003d0: 2c54 e0bd 73bc 8cbe 081b 3d3d 3e83 463f
000003e0: b56e 7c3f 1993 8fbc 3f3a 3d3f 894c b43c
000003f0: aa47 a4be 6894 2840 711d 9f3e 1a41 733f
-0.14503577 -0.19396389 -0.004367893 1.7988645 -0.06872496 0.08008575 -0.053322803 0.8455871
0.021442395 0.7745626 0.0071735727 0.15028784 -0.21467486 1.4192402 0.30382872 -0.15935487
1.0858183 1.7548529 -0.43475226 -0.018703133 0.46268377 1.0454382 0.3172814 0.70046246
0.016230153 -0.023905901 -0.4405682 -0.11633435 0.19307908 -0.10530783 -0.06074585 -0.03384003
-0.1804941 0.8749868 -0.20759867 0.6716406 -0.29636928 0.6658618 1.4790193 0.34585676
-0.04548664 -0.03937523 2.1204858 -0.2499164 -0.009038807 0.44120377 0.024322692 0.5309688
0.7656759 0.062630184 -0.2810761 0.03640954 0.01912789 2.1780345 1.4571722 0.9596295
-0.4938393 0.46353617 0.056875266 -0.84008133 -0.029799134 0.39986017 -0.08318153 -0.26746213
-0.24470462 -0.029470852 0.23129092 0.2353167 1.5756571 0.85862 0.59873736 -0.2659311
0.008225244 -0.16735995 0.5988194 0.56338054 1.1826085 0.6019605 0.02320028 0.36613047
1.0036637 -0.2846975 -0.59162146 -0.7766352 0.50928 2.9313955 0.4112655 0.8089084
0.25696695 -0.19517905 0.7931611 1.5799081 0.03136685 -0.01357142 -0.1211241 0.86971754
1.344416 0.6351893 -0.24839893 -0.066018425 0.086223915 -0.063984655 0.076169915 0.3837554
-0.050748058 -0.07763495 -0.20601423 0.20644204 1.5723913 -0.26926026 0.69033474 0.00048860407
2.400788 -0.29048428 -0.3098471 0.94856083 0.060218975 -0.24279892 -0.3444672 0.0881109
1.4681854 0.09446724 0.07960649 0.32645836 -0.055954322 0.10942839 -0.04100036 0.7461292
0.118309855 -0.015121393 0.13805087 -0.13002096 -0.114768155 -0.021506108 0.8691297 0.042338416
1.4207346 -0.007814192 0.81908315 -0.020929523 -0.49377835 -0.067036964 0.5144312 -0.5599742
-0.16962484 -0.08134047 0.068860896 -0.19656 -0.017345585 1.8450416 1.0814217 1.460021
0.04823632 0.8055245 -0.14139628 -0.056777477 1.2702819 1.11015 0.1289131 0.38881752
0.90086937 0.02706618 0.26172596 0.8279811 0.32129017 0.009802841 0.031237498 1.2995576
-0.037527394 -0.028965592 1.4281019 1.0649078 1.3371674 -0.001959093 0.03088692 -0.044926014
0.67352796 2.1282837 -0.054159813 -0.032193076 0.12724732 -0.036533326 0.22370555 0.0099532865
-0.14639425 -0.1124644 0.78897727 -0.12505054 0.65599775 0.054243937 0.03444109 0.07126573
-0.07047029 1.2042466 -0.04416504 -0.25366625 1.5962042 -0.4503849 0.52667767 -0.023345893
0.1381265 0.9983638 0.79613906 1.3245332 0.051188167 0.6543711 0.6044354 0.02295694
2.0502462 0.82674867 2.1514752 -0.2123958 -0.019669559 -0.04443397 -0.38018695 0.020822529
0.17803538 0.46578047 0.29122368 2.6367035 0.5122133 0.37045836 0.8222742 1.4942685
0.25254452 -0.47683764 -0.28451037 -0.019675482 0.77783036 0.023821646 0.6370202 -0.33089033
0.012947557 0.46139964 0.025339946 1.180619 0.39896253 0.07751003 0.7693262 1.079331
0.7215454 0.2136056 0.9968131 -0.08254898 -0.109535545 -0.27487525 0.046168357 0.7754401
0.98606426 -0.017526196 0.73917 0.022009151 -0.32085925 2.634058 0.3107715 0.9502121

layers.2.bias f4 [2]
00000000: ee51 0340 3399 fe3f
2.0518756 1.9890503
