policy.pkl (torch, 272271 bytes, 6 tensors)

layers.0.weight f4 [256, 4]
0	0x3f998616	1.1994045
1	0xbea8aaa9	-0.32942703
2	0xbf786794	-0.9703305
3	0xbe60bada	-0.21946278
4	0xbf6f4825	-0.9346946
5	0x3d1045fc	0.035222992
6	0x3ee3becc	0.44481504
7	0xbda6c463	-0.081429265
8	0x3e4eb1dd	0.20185037
9	0x3e9a13c3	0.30093202
10	0x3dc6fc7a	0.09716125
11	0x3f384b3b	0.7198979
12	0x3eaac884	0.33356106
13	0xbed6d491	-0.4195905
14	0xbf39fc64	-0.7265074
15	0x3d053735	0.032523353
16	0xbf763fca	-0.96191084
17	0xbf29025c	-0.66019225
18	0x3e888c2a	0.26669437
19	0xbe935181	-0.2877312
20	0x3d08f2ed	0.033434797
21	0x3ea7320f	0.3265538
22	0xbe92b1d2	-0.2865129
23	0x3d5dfd89	0.054196868
24	0xbee46ba8	-0.44613385
25	0x3f4a86e3	0.7911207
26	0x3e7f80d3	0.24951486
27	0xbefe7c6c	-0.497043
28	0x3f0cd187	0.55007213
29	0x3f75531e	0.9582995
30	0x3ff232ea	1.8921788
31	0x3f621bc3	0.8832361
32	0x3ed7e8bb	0.42169747
33	0x3f195fec	0.5991199
34	0x3ee81abf	0.45332906
35	0x3f225bc6	0.63421285
36	0xbf454ba5	-0.7706855
37	0xbee5fa96	-0.44917744
38	0xbe005eb1	-0.12536122
39	0x3b89541e	0.0041909358
40	0xbf1bd668	-0.6087403
41	0xbf15a77c	-0.58458686
42	0xbe7ce86f	-0.24698041
43	0xbf7e892c	-0.9942806
44	0xbf905369	-1.1275455
45	0xbf99d101	-1.2016908
46	0xbfc89805	-1.5671393
47	0xbf4db7bf	-0.803585
48	0x3d91c04a	0.07116754
49	0xbe8f16d9	-0.2794712
50	0xbf1815af	-0.59408087
51	0xbf17cd3b	-0.5929753
52	0x3f460898	0.77356863
53	0x3f1b2e73	0.6061775
54	0x3eba6525	0.36405292
55	0xbe64f520	-0.22359133
56	0xbf9d19d4	-1.2273507
57	0xbf9d8bbb	-1.2308267
58	0xbfde260a	-1.7355359
59	0xbf54e78b	-0.83165807
60	0x3e96ce89	0.2945445
61	0xbd3c5d74	-0.04598756
62	0xbe138a13	-0.1440814
63	0xbd95bfa6	-0.07311945
64	0xbfb76466	-1.4327514
65	0xbfb03830	-1.3767147
66	0xc05e44fd	-3.4729607
67	0xbfabb323	-1.3414043
68	0xbeaefd77	-0.34177753
69	0x3f505bb1	0.8138991
70	0x3c976491	0.018480571
71	0xbd6f333d	-0.058398474
72	0xbd9b3835	-0.0757908
73	0xbeaacf19	-0.33361128
74	0xbd13d129	-0.036088143
75	0xbef6d9ad	-0.48212948
76	0x3e2c3d18	0.1682018
77	0xbe1d73cc	-0.15376204
78	0x3e378aa0	0.17923975
79	0xbea4f14b	-0.32215342
80	0x3ec24bd7	0.37948486
81	0xbf0bf1ca	-0.54665816
82	0x3dad7784	0.084700614
83	0x3e214fd0	0.15753102
84	0x3e06f967	0.13181077
85	0xbeaf4802	-0.34234625
86	0xbef68db9	-0.48155
87	0xbe93189c	-0.28729713
88	0x3e447cf3	0.1918829
89	0xbed12f27	-0.40856287
90	0xbfd0d036	-1.6313541
91	0xbf4b82d3	-0.79496497
92	0xbedbffff	-0.42968747
93	0xbef0b943	-0.47016343
94	0x3f29b473	0.6629097
95	0xbb609542	-0.0034268652
96	0xbf8622a7	-1.0479325
97	0xbf0b74a1	-0.54474837
98	0xbed2a831	-0.41143945
99	0xbe873506	-0.2640764
100	0x3ed850ab	0.42249045
101	0x3f4144b1	0.7549544
102	0x3e762295	0.2403663
103	0x3efcd60a	0.4938205
104	0xbe81002f	-0.25195453
105	0xbc9adb93	-0.01890353
106	0xbf18dfb9	-0.59716374
107	0xbdf04e66	-0.11733703
108	0xbd8e53fc	-0.069496125
109	0xbec845e2	-0.39115816
110	0xbf4bccd1	-0.796094
111	0x3d5c5a27	0.053796913
112	0x3d5469b3	0.051858615
113	0xbe86fcc1	-0.2636471
114	0x3b42bae2	0.0029713442
115	0xbbcec7c7	-0.0063104364
116	0x3eeeb4e4	0.46622384
117	0x3e9ad0b4	0.30237353
118	0x3e6646e4	0.2248798
119	0x3e1697d3	0.14706354
120	0x3e9efc3b	0.31051812
121	0xbe9978bb	-0.29974923
122	0xbe8d9ae8	-0.27657247
123	0x3e3cf0e7	0.18451272
124	0x3d8e4bb9	0.06948037
125	0xbf87f044	-1.0620198
126	0xbf8dc3e1	-1.1075402
127	0xbfb121da	-1.3838456
128	0xbef34c7c	-0.4751929
129	0xbf2cce1b	-0.6750199
130	0xbd2cd432	-0.042194553
131	0xbd998b5d	-0.074972846
132	0xbea6925d	-0.3253354
133	0xbe019f65	-0.1265846
134	0xbe94bd62	-0.29050738
135	0xbe47e45f	-0.1952071
136	0x3f6f8255	0.93558246
137	0x3f08b2f5	0.53398067
138	0xbd89f7b4	-0.06736699
139	0xbe5fc155	-0.21851094
140	0x3dadd430	0.08487737
141	0xbe210f4b	-0.1572849
142	0x3e2e660e	0.17031118
143	0x3ee8ead7	0.4549167
144	0xc02416ce	-2.563892
145	0xc018d330	-2.3878899
146	0xc05cedca	-3.4520135
147	0xbfcc2e77	-1.595168
148	0xbfc21db9	-1.5165321
149	0x3e26424d	0.16236229
150	0x3defeb7c	0.11714837
151	0x3dab8e4e	0.08376752
152	0x3e052cf5	0.13005431
153	0x3ea04910	0.31305742
154	0x3ee3eef3	0.4451824
155	0xbed739c4	-0.4203626
156	0x3e714df1	0.23564889
157	0x3db144c9	0.08655698
158	0x3e5ce988	0.2157346
159	0xbe02ce31	-0.12773968
160	0x3f10a666	0.56503904
161	0x3eff49e3	0.4986106
162	0xbe58f3ad	-0.21186705
163	0x3e373469	0.17891087
164	0xbec43663	-0.38322744
165	0xbf454b8d	-0.77068406
166	0xbede306f	-0.43396327
167	0x3e08e1a6	0.13367328
168	0xbf55f3de	-0.83575237
169	0x3f094d94	0.53634
170	0x3f29212b	0.66066235
171	0xbf090061	-0.53516203
172	0xbe8d5d61	-0.27610305
173	0xbd50271a	-0.05081854
174	0x3e8a4bdd	0.27011004
175	0xbefd55ce	-0.49479526
176	0xbe5de504	-0.21669394
177	0x3ea463c8	0.32107377
178	0xbecdf3ce	-0.4022507
179	0x3e98a30c	0.29811895
180	0x3f30499c	0.6886232
181	0x3e980efe	0.29698938
182	0x3da6865f	0.08131098
183	0x3e05f4db	0.13081686
184	0xbcb658ae	-0.022259083
185	0xbcb5ef7f	-0.022208927
186	0xbf84b6ff	-1.0368346
187	0xbf107796	-0.56432474
188	0x3e833086	0.25622958
189	0x3e6d8c8d	0.23198147
190	0xbeab9a2a	-0.33516055
191	0xbf4582c2	-0.77152646
192	0xbf58e686	-0.8472675
193	0x3e346586	0.17616853
194	0xbdb293e8	-0.08719617
195	0x3e1667cd	0.14688034
196	0x3e20a228	0.15686858
197	0x3d064078	0.032776326
198	0xbf6b910f	-0.92018217
199	0xbe72ba98	-0.23703992
200	0xbf6c4d74	-0.92305684
201	0x3f892617	1.0714749
202	0x3f1ed693	0.62046164
203	0xbe3574c7	-0.17720328
204	0xbf4ea79b	-0.80724496
205	0xbd6bd2af	-0.05757397
206	0xbd590f74	-0.052993253
207	0xbd8354b3	-0.064126395
208	0x3db1e7f8	0.08686823
209	0xbeaa4214	-0.3325354
210	0xbbf1d4e4	-0.007380115
211	0x3f3d0cb7	0.73847526
212	0x3f8e55a6	1.1119888
213	0x3fead930	1.834753
214	0x3f9acc3c	1.2093577
215	0x3f9e2207	1.2354134
216	0xbf09a871	-0.53772646
217	0xbd77ec17	-0.060527887
218	0x3f0e0bf7	0.55487007
219	0xbe545eb7	-0.20739256
220	0xbeb39c68	-0.35080266
221	0x3eec6895	0.4617354
222	0xbe1d025b	-0.1533293
223	0xbea938b9	-0.33051088
224	0x3f18f806	0.59753454
225	0x3f28735e	0.65801036
226	0xbebd0db8	-0.3692453
227	0x3e5325a2	0.20619825
228	0xbde33b73	-0.110953234
229	0x3e40c24f	0.18824123
230	0x3df612f4	0.12015334
231	0x3e0f5d78	0.14000499
232	0x3e57ea50	0.21085477
233	0xbee5f0a2	-0.4491015
234	0x3e37157d	0.17879291
235	0xbd8fee06	-0.07027821
236	0xbf030ae8	-0.51188517
237	0xbe100392	-0.14063862
238	0xbf8da489	-1.1065837
239	0xbe2b927b	-0.16755097
240	0x3dd78b1e	0.105245814
241	0xbec29b43	-0.3800908
242	0xbeea374d	-0.45745316
243	0xbe81fddb	-0.2538899
244	0xbe80ac5b	-0.25131497
245	0x3ee4a85c	0.44659698
246	0x3f0233b6	0.50860155
247	0x3e790d28	0.24321425
248	0xbccbf629	-0.024897652
249	0xbed61450	-0.41812372
250	0xbf0d3a4a	-0.5516707
251	0x3e53c6b6	0.20681271
252	0xbe403bdb	-0.18772833
253	0xbcb5b013	-0.022178685
254	0xbef7b322	-0.48378855
255	0x3e3914e1	0.18074371

layers.0.bias f4 [256]
0	0x3f343013	0.70385855
1	0xbef3accd	-0.47592774
2	0xbd95c7a2	-0.073134676
3	0x3f52878b	0.8223807
4	0xbe88cd32	-0.26719052
5	0x3d9d3a85	0.07677177
6	0x3f2707cf	0.6524629
7	0x3e2376cc	0.15963286
8	0x3e444baf	0.19169496
9	0xbe03f6f7	-0.12887178
10	0xbecd9745	-0.40154472
11	0xbe5dffc1	-0.21679594
12	0xbe94b749	-0.29046085
13	0xbef663aa	-0.48122913
14	0xbe735476	-0.23762688
15	0xbde18bd2	-0.11012997
16	0xbea2c822	-0.31793314
17	0x3e9647be	0.2935161
18	0x3fbf9191	1.4966298
19	0xbecc8629	-0.39946106
20	0x3dfa7662	0.12229611
21	0x3f55712b	0.83375806
22	0x3ec5348f	0.38516662
23	0xbe866829	-0.26251343
24	0xbe4f81d8	-0.20264375
25	0x3dc194b9	0.09452195
26	0x3fa3598a	1.27617
27	0x3fa438b2	1.2829802
28	0x3f81f23c	1.0152049
29	0x3da8b69a	0.082379535
30	0xbf0044ce	-0.5010499
31	0xbf1abaa4	-0.6044104
32	0x3ea9eff7	0.3319089
33	0x3fd85030	1.6899471
34	0x3ea3b7bd	0.3197612
35	0xbdd08ff0	-0.10183704
36	0xbef21043	-0.47278032
37	0xbe5eb12c	-0.21747273
38	0xbe43d0a6	-0.19122562
39	0x3c35bf39	0.011092954
40	0xbec78d39	-0.38974932
41	0x3ed3e334	0.4138428
42	0x3ec97d5c	0.39353454
43	0x3ea3ef37	0.32018444
44	0xbe3437e9	-0.17599453
45	0x3dde008a	0.108399466
46	0x3fbfcac6	1.4983757
47	0xbf2cc28c	-0.67484355
48	0xbde41f97	-0.11138838
49	0x3f89c1ff	1.0762328
50	0xbdbac6b7	-0.09119933
51	0xbdf4cd7d	-0.11953256
52	0xbdda3c60	-0.10656047
53	0x3e819773	0.2531086
54	0xbe8e9e25	-0.2785503
55	0xbe0ba24c	-0.1363613
56	0xbd7c0800	-0.061531067
57	0x3f7a915a	0.9787804
58	0xbefd4dcf	-0.49473426
59	0xbdb5f944	-0.08885434
60	0x3f78760d	0.9705513
61	0xbeb78749	-0.35845402
62	0x3f06a484	0.5259478
63	0x3fa651ea	1.2993748
64	0x3f401ab7	0.75040764
65	0x3f07d7fb	0.53063935
66	0x3f7bce0b	0.9836127
67	0xbe726ea1	-0.23675014
68	0x3fb2a849	1.3957607
69	0x3f010887	0.50403637
70	0xbee720e3	-0.45142278
71	0xbe1a8266	-0.15088806
72	0xbe1dfe9f	-0.15429161
73	0x3f53548c	0.82550883
74	0xbf968282	-1.1758578
75	0xbec775fd	-0.38957205
76	0x3e04a465	0.12953337
77	0xbea11a91	-0.3146558
78	0xbeb36e42	-0.35045058
79	0x3fb296c0	1.3952255
80	0x3e4612cf	0.19343112
81	0x3e1f416e	0.15552303
82	0xbf354dd7	-0.708219
83	0xbed7f4f6	-0.42179078
84	0xbeef4a86	-0.46736544
85	0x3fa0e46b	1.2569708
86	0xbdf87635	-0.12131921
87	0xbe1b3a13	-0.15158872
88	0x3f131d12	0.5746623
89	0x3fb87a43	1.4412311
90	0xbd22ff77	-0.03979441
91	0xbebea2bd	-0.37233534
92	0xbebdcc34	-0.37069857
93	0x3f3f259f	0.7466678
94	0xbdd21be8	-0.10259229
95	0xbe428dca	-0.189994
96	0xbe048eee	-0.12945148
97	0x3f38cfba	0.72191966
98	0x3f02fe3e	0.5116919
99	0x3fa18897	1.2619809
100	0x3eaeebe5	0.34164348
101	0x3e7311af	0.23737215
102	0x3f840d3d	1.031654
103	0x3e43ffd5	0.19140561
104	0xbd14363b	-0.03618453
105	0xbedc373d	-0.43010893
106	0xbe75b3a2	-0.23994306
107	0xbe991590	-0.29899263
108	0xbe1c33e4	-0.1525417
109	0xbd990308	-0.07471281
110	0xbed39644	-0.4132558
111	0xbedc5b56	-0.43038434
112	0xbea80112	-0.32813317
113	0xbe918910	-0.28424883
114	0xbc297102	-0.010341885
115	0xbdae08ca	-0.0849777
116	0x3f8a1ff6	1.0791004
117	0xbe2aebe6	-0.1669155
118	0xbe13a33e	-0.1441774
119	0xbf0f15a7	-0.55892414
120	0xbdee39f1	-0.11632145
121	0xbdbc0a3b	-0.09181639
122	0xbeee06e2	-0.46489626
123	0xbd463e43	-0.04839922
124	0xbdb84f9a	-0.08999558
125	0x3f38468e	0.7198266
126	0x3f392671	0.7232428
127	0xbf00e3c4	-0.5034754
128	0xbed29ead	-0.41136685
129	0xbe30f31d	-0.1728024
130	0xbeb5fd03	-0.35544595
131	0xbea99861	-0.33124068
132	0xbe69b857	-0.22824226
133	0x3dea3e0c	0.11437616
134	0x3e92eea6	0.286977
135	0x3ee093d3	0.4386278
136	0xbe6dd1f8	-0.23224628
137	0xbddb4601	-0.107067116
138	0x3ef036a3	0.46916685
139	0xbd8da665	-0.06916503
140	0x3e900b57	0.28133652
141	0x3fef2190	1.8682117
142	0x3f81505e	1.0102651
143	0xbe85283e	-0.26007265
144	0x3f939136	1.152869
145	0x3e8eda93	0.27901134
146	0xbef16662	-0.47148424
147	0x3f66fc27	0.90228504
148	0xbe87e090	-0.26538515
149	0xbec9478e	-0.39312404
150	0xbd1bc7af	-0.03803223
151	0x3efced1d	0.49399653
152	0xbec7bed4	-0.39012778
153	0xbe2c9418	-0.16853368
154	0x3e215b58	0.15757501
155	0xbe9095a6	-0.28239173
156	0xbeebca11	-0.46052602
157	0x3e6faad6	0.23405012
158	0xbeb369d5	-0.3504168
159	0x3f50d3e8	0.81573343
160	0xbf2db35b	-0.678518
161	0x3f9ff1a9	1.2495624
162	0xbed20dee	-0.41026253
163	0xbdc22d86	-0.09481339
164	0xbd12c809	-0.0358353
165	0xbd737203	-0.059434902
166	0x3e072d5d	0.13200898
167	0x3f34dc96	0.7064909
168	0x3fcea64a	1.6144497
169	0xbe8512f4	-0.25991023
170	0xbe753436	-0.23945698
171	0xbe342ecf	-0.17595981
172	0x3f5a7ce1	0.853468
173	0xbfa13394	-1.2593865
174	0x3fa24519	1.2677337
175	0xbeacc76d	-0.337459
176	0xbec5eea9	-0.38658646
177	0xbde119d0	-0.109912515
178	0x3e7396d6	0.23788008
179	0x3ea95b97	0.3307769
180	0xbdb605f8	-0.08887857
181	0x3d23b12b	0.039963882
182	0x3efcaba4	0.493497
183	0x3f4eb657	0.8074698
184	0xbdee0fb3	-0.11624088
185	0xbdbdfa42	-0.092762485
186	0x3e818b6f	0.25301692
187	0xbf38702e	-0.7204617
188	0xbd2f1c48	-0.04275158
189	0xbeeea00d	-0.46606484
190	0xbd08dd5d	-0.033414233
191	0x3f3e9568	0.74446726
192	0xbeeaa1d5	-0.45826593
193	0x3fa53426	1.290654
194	0xbd9ecf09	-0.077543326
195	0x3ea4164c	0.3204826
196	0x3fb4d34f	1.4126986
197	0xbf10d161	-0.56569487
198	0x3f445d03	0.76704425
199	0xbd69ab50	-0.057048142
200	0x3f1a2448	0.6021161
201	0xbeb4c35a	-0.3530529
202	0xbe8b89d2	-0.27253586
203	0xbe9e6c2b	-0.309419
204	0x3e54d2d9	0.20783557
205	0x3fdaa3c6	1.708123
206	0x3e9000fe	0.28125757
207	0xbe41f902	-0.18942645
208	0xbe02c779	-0.12771405
209	0xbe50ff0b	-0.20409791
210	0x3ca05b62	0.019574825
211	0xbe94de39	-0.29075792
212	0xbd28cbc6	-0.04120996
213	0x3edcc808	0.43121362
214	0xbe9c1447	-0.3048422
215	0xbebd68a4	-0.36993897
216	0xbe160c24	-0.14653069
217	0x3e34e980	0.17667198
218	0x3f2479c9	0.6424833
219	0xbde29e3d	-0.11065338
220	0xbd6b9c8c	-0.05752234
221	0xbedc52a0	-0.43031788
222	0x3ef9da8d	0.48799554
223	0x3ea0c3f3	0.31399497
224	0x3f819a25	1.0125166
225	0xbe3a55ee	-0.18196842
226	0xbe213e28	-0.15746367
227	0x3f1d6d12	0.61494553
228	0x3cea3bb8	0.02859293
229	0x3ece4241	0.40284923
230	0x3e84b601	0.25920108
231	0x3f141082	0.5783769
232	0x3f00b3e6	0.50274503
233	0x3e937fad	0.28808346
234	0xbf4ef0de	-0.80836284
235	0xbd7253ad	-0.05916183
236	0xbe0a937f	-0.13532828
237	0xbe866b1d	-0.26253596
238	0x3e438cb8	0.19096649
239	0x3dac5bd1	0.0841595
240	0x3f721a45	0.94571334
241	0xbeb92efa	-0.36168653
242	0xbdbf7189	-0.09347827
243	0x3e0c9385	0.13728149
244	0xbce93bc0	-0.028470874
245	0x3eb0ca25	0.34529224
246	0x3e728492	0.23683384
247	0xbe4558e6	-0.19272193
248	0x3f59cca4	0.8507788
249	0xbe988396	-0.29787892
250	0xbeed2f1a	-0.46324998
251	0x3e2002c9	0.15626062
252	0x3f2fe404	0.687073
253	0x3f7eb2a0	0.9949131
254	0xbee40924	-0.44538224
255	0x3bca8eb7	0.0061815637

layers.1.weight f4 [256, 256]
0	0xbc37a067	-0.0112076765
1	0xbd26e968	-0.040749937
2	0xbd58f84d	-0.052971173
3	0xbcd13b13	-0.025540864
4	0xbc9a5dff	-0.018843649
5	0x3cd8a38d	0.026445175
6	0xbc5316cc	-0.012883853
7	0xbd383bb4	-0.044978812
8	0x3d6451c7	0.05574205
9	0x3d219d20	0.039456487
10	0x3bd635a0	0.0065371543
11	0x3d3e4704	0.046454445
12	0xbce3b33d	-0.027795428
13	0x3cb7d169	0.022438722
14	0xbc0ea32c	-0.008705895
15	0xbc92a099	-0.017898845
16	0xbcda7c87	-0.026670707
17	0xbc10277a	-0.008798474
18	0x3c51dd60	0.012809128
19	0xbc990e6c	-0.018683635
20	0x3ce8beef	0.028411357
21	0xbd881f47	-0.06646591
22	0xbc6cbbe9	-0.014449098
23	0xbd09b52e	-0.033620052
24	0x3d715f24	0.058928624
25	0xbcaaf80a	-0.020870227
26	0xbc249662	-0.01004562
27	0xbc991d5c	-0.018690757
28	0x3d628a2c	0.055307552
29	0x3c99ae45	0.018759856
30	0x3c2f312a	0.010692874
31	0xbcbc3ec9	-0.022979157
32	0xbd86229e	-0.065495715
33	0xbbffd990	-0.007807918
34	0xbc1a14eb	-0.009404401
35	0x3cee5dff	0.029097555
36	0x3d73eb79	0.059550736
37	0x3d0cdefa	0.034392335
38	0x3d6e38b2	0.058159538
39	0xbd0566dc	-0.032568797
40	0xbd4e8c0a	-0.05042652
41	0x3b9a7e05	0.0047147297
42	0xbd0ce8d1	-0.03440172
43	0xbd32698e	-0.043557696
44	0x3c039a1c	0.008032348
45	0xbd5cdac3	-0.053919565
46	0x3cc0a551	0.023516329
47	0x3d291df6	0.04128834
48	0xbd3e8452	-0.04651291
49	0x3d59f585	0.05321266
50	0xbd22084f	-0.039558705
51	0x3d7b2133	0.061310958
52	0x3c90cc9f	0.017675696
53	0x3d557f70	0.052123487
54	0x3c1d4ffd	0.00960159
55	0xbd46b370	-0.04851097
56	0x3c1303d0	0.008973077
57	0x3d63cb71	0.05561394
58	0xbce1de40	-0.027571797
59	0xbd05c38f	-0.032657202
60	0x3cc29952	0.02375475
61	0x3c18ada6	0.009318745
62	0xbc883a5b	-0.016629389
63	0x3d42d9ff	0.04757118
64	0x3c5eb34c	0.013592552
65	0x3a9635ef	0.0011460165
66	0x3bdc4d3d	0.0067230747
67	0xbd75ce0f	-0.060010966
68	0xbcb7c1fc	-0.022431366
69	0xbd0a4e51	-0.033766095
70	0xbd1c5b3d	-0.03817295
71	0xbd75811d	-0.059937585
72	0xbcc224be	-0.02369916
73	0x3d1a0ff5	0.037612874
74	0x3c349595	0.011021991
75	0xbcf38d12	-0.029730354
76	0x3d83f8bc	0.06443927
77	0xbb3b87f9	-0.0028614982
78	0x3d7839b8	0.06060192
79	0x3b49a648	0.0030769277
80	0x3d729e2e	0.059232883
81	0x3b0ac77e	0.0021176036
82	0x3d54f435	0.051990706
83	0xbd74f590	-0.0598045
84	0x3cbaa944	0.02278579
85	0xbd049c71	-0.032375757
86	0x3cb01e69	0.021498876
87	0xbd702a5a	-0.05863414
88	0x3ce1e543	0.02757514
89	0xbc97e5a1	-0.018542113
90	0xbd42a3a9	-0.04751936
91	0xbd0c7803	-0.03429414
92	0x3cd990dc	0.026558332
93	0xbb87881b	-0.004136098
94	0x3d21c2e0	0.039492488
95	0xbd60d2bd	-0.054888476
96	0x3cc653d9	0.024209904
97	0x3d28a192	0.04116971
98	0xbd70036f	-0.058597025
99	0x3d1222d5	0.03567775
100	0xbd6f7191	-0.058457915
101	0xbcd5fe0b	-0.026122114
102	0xbd8203f3	-0.063484095
103	0xbd4d4654	-0.0501159
104	0xbd2abbc4	-0.041682974
105	0x3c026268	0.007958032
106	0x3c141723	0.009038719
107	0xbd00371a	-0.03130255
108	0x3cbcb808	0.023036972
109	0x3d1832cd	0.037157822
110	0xbc480577	-0.012208334
111	0xbbef7a5c	-0.0073082875
112	0x3d7c066f	0.061529573
113	0xbd463032	-0.048385806
114	0xbd3c542d	-0.045978714
115	0xbd284714	-0.04108341
116	0xbcde9bfa	-0.027173985
117	0x3d6dd43f	0.05806374
118	0x3ced777b	0.028987637
119	0xbc6d7e29	-0.014495411
120	0xbd2883b7	-0.041141238
121	0x3cf0fc5e	0.029417213
122	0x3d7142c4	0.058901563
123	0x3c6f41d9	0.014603102
124	0xbd7f51ec	-0.062333986
125	0xbcb1970f	-0.021678476
126	0x3d7f2e93	0.062300276
127	0xbc99d4ac	-0.018778168
128	0xbd13336a	-0.035937704
129	0xbc07a10b	-0.008278142
130	0x3bb323f1	0.005466931
131	0x3d6f4b43	0.058421385
132	0x3cddd7d5	0.027080456
133	0xbc9ae861	-0.018909635
134	0xb9addfbf	-0.00033163835
135	0xbd2c9039	-0.04212973
136	0xbd3c270f	-0.045935687
137	0xbc1ccd33	-0.009570408
138	0xbc4ad568	-0.012379982
139	0x3d36f990	0.044671595
140	0x3d665a0c	0.05623822
141	0x3cf33846	0.02968992
142	0x3c934247	0.01797594
143	0xbd1fdebe	-0.039030783
144	0xbd07c99d	-0.033151258
145	0x3cb3722d	0.02190503
146	0x3b1ab78a	0.0023607933
147	0xbd7f5b10	-0.062342703
148	0xbb103675	-0.0022005115
149	0xbb64b934	-0.0034900429
150	0xbd4fdf77	-0.050750222
151	0xbd0e62a5	-0.034762044
152	0xbd7d5400	-0.061847687
153	0x3cd6a69e	0.026202496
154	0x3ccfa008	0.025344864
155	0x3d58e647	0.052953985
156	0x3cf5f558	0.030024216
157	0x3bc860f3	0.006115073
158	0xbc8e2270	-0.017350405
159	0x3c062464	0.008187387
160	0x3d0f15e9	0.034933005
161	0xbd2a4b24	-0.041575566
162	0x3c89d810	0.01682666
163	0xbd304547	-0.043034818
164	0x3ccca76a	0.024982173
165	0x3b32b9a2	0.002727129
166	0x3d262294	0.04056032
167	0x3bf9d11a	0.007623804
168	0x3d3364f1	0.043797437
169	0xbbb3d2b4	-0.0054877643
170	0xbbbb4ef0	-0.005716197
171	0x3c11d2cf	0.008900358
172	0x3cc73c39	0.024320709
173	0x3bd1eca7	0.006406385
174	0xbd1ee438	-0.038791865
175	0x3cadffcf	0.021240143
176	0xbd264da3	-0.040601384
177	0xbd6ca26a	-0.057772078
178	0xbd405211	-0.046953265
179	0x3d31e2d5	0.043429215
180	0xbd51ef4e	-0.05125361
181	0xbd181ede	-0.037138812
182	0x3cad3e3c	0.02114784
183	0xbb74d89e	-0.003736056
184	0xbd6096aa	-0.054831184
185	0xbc28bafc	-0.010298487
186	0x3c2b8ef1	0.010471092
187	0x3d4d85e3	0.050176512
188	0xbba0809c	-0.004898144
189	0x3b7459cb	0.0037284966
190	0xbb9d64e2	-0.004803286
191	0x3c32c5b5	0.010911395
192	0xbd236805	-0.039894123
193	0xbd44cab6	-0.048044883
194	0xbc5fb26d	-0.01365338
195	0x3bfd6c69	0.0077338708
196	0xbb867519	-0.0041033146
197	0xbba8ed47	-0.005155239
198	0xbc4db0c0	-0.0125543475
199	0x3a9449fb	0.0011313552
200	0xbd015c95	-0.031582434
201	0x3d485091	0.04890496
202	0x3ca1c32d	0.019746387
203	0xbcb68a05	-0.02228261
204	0x3c55a603	0.013040069
205	0xbcc389d8	-0.02386944
206	0xbd56f5f3	-0.05248065
207	0xbcb8f2c5	-0.022576699
208	0x3d1747c4	0.036933675
209	0x3d22af4e	0.039717965
210	0x3d173d4b	0.036923688
211	0x3cd01a9c	0.025403313
212	0x3d201a7a	0.03908775
213	0xbc06449b	-0.008195068
214	0xbd5571a8	-0.052110344
215	0x3cb791e0	0.022408426
216	0x3c9b63ec	0.018968545
217	0xbd111290	-0.035418093
218	0xbd87cd21	-0.06630922
219	0x3abca11a	0.0014391274
220	0x3b8624c6	0.004093739
221	0xbb7c7406	-0.0038521304
222	0xbd67700d	-0.056503344
223	0x3b90eb7b	0.0044226027
224	0x3cccb521	0.024988713
225	0x3b6759a7	0.003530124
226	0x3d7af33b	0.06126712
227	0xbd36c180	-0.04461813
228	0x3b7afd5b	0.0038297984
229	0xbc793cd0	-0.015212253
230	0x3c8f37d4	0.017482676
231	0x3d16713a	0.036729075
232	0xbd51fd52	-0.051266976
233	0x3bd7bbe2	0.0065836767
234	0xbd45bf21	-0.048277978
235	0xbd4a2f72	-0.049361654
236	0x3cca658a	0.02470662
237	0xbcd70a49	-0.026250022
238	0xbc264fa3	-0.010150823
239	0x3d7b2340	0.061312914
240	0xbd4ed7ff	-0.05049896
241	0x3cb6810f	0.022278337
242	0xbc8bc99a	-0.017063905
243	0x3d109cc0	0.03530574
244	0x3cc58b5f	0.024114309
245	0xbd148ef6	-0.03626915
246	0xba53e669	-0.0008083345
247	0xbc8f8303	-0.017518526
248	0x3d53ebe3	0.05173863
249	0xbd0d8372	-0.034549184
250	0x3cef2eae	0.029197063
251	0xbbf0795b	-0.0073386854
252	0xbd550869	-0.052009974
253	0xbd38abca	-0.045085706
254	0x3d0964c7	0.033543374
255	0x3c99f838	0.018795118

layers.1.bias f4 [256]
0	0x3cffd7d7	0.03123085
1	0x3ef2de1d	0.47435084
2	0x3f1fd28f	0.6243066
3	0xbdb61fef	-0.088928096
4	0x3f505d4b	0.81392354
5	0x3eb7c0ce	0.35889286
6	0x3d0aea38	0.033914775
7	0x3ea16875	0.31525007
8	0xbd5cf53e	-0.05394482
9	0x3f224e0c	0.6340034
10	0x3bd11762	0.0063809613
11	0x3fe38377	1.7774495
12	0x3c4fe4e1	0.012688846
13	0x3d6706a6	0.056402825
14	0xbd65ba3b	-0.056085806
15	0xbd24d678	-0.040243596
16	0x3dd29b9e	0.10283588
17	0x3f090714	0.53526425
18	0xbe1bad9d	-0.15202947
19	0x3f6bd51a	0.9212204
20	0x3f9f1564	1.2428403
21	0x3f3987be	0.7247275
22	0x3e437907	0.19089137
23	0xbe06908d	-0.13141079
24	0x3d560986	0.052255176
25	0x3b29cd91	0.002590988
26	0x3d3e45e6	0.04645338
27	0x3c8d8bce	0.017278578
28	0xbcf6f8e7	-0.030147983
29	0x3b6c3872	0.0036044386
30	0xbcce0dc5	-0.02515305
31	0xbda71c64	-0.08159712
32	0xbbf5ba0a	-0.007498984
33	0x3e47c925	0.19510324
34	0xbe259a67	-0.16172181
35	0xbd37a2b9	-0.04483292
36	0x3f4b0c91	0.7931605
37	0xbc541c92	-0.012946265
38	0x3fad54c5	1.3541495
39	0x3f1af896	0.6053556
40	0x3e666bee	0.2250211
41	0x3fc75709	1.5573436
42	0xbd99d214	-0.07510772
43	0x3c5229c3	0.01282734
44	0x3ed2e99d	0.41193858
45	0x3fb57c04	1.4178472
46	0xbbf59f40	-0.0074957907
47	0xbd872d0a	-0.066003874
48	0xbc25eb05	-0.010126834
49	0x3cab3e34	0.020903684
50	0x3fb40c48	1.4066248
51	0x3e306f7f	0.17230032
52	0x3fab7086	1.3393714
53	0xbdc2f5c6	-0.09519534
54	0xbd1c6949	-0.038186345
55	0x3f42bb09	0.76066643
56	0x3e0cb97d	0.13742633
57	0x3ac3a7e7	0.0014927358
58	0xbd49a6c4	-0.049231306
59	0x3f4c4815	0.7979749
60	0x3f45ecce	0.7731446
61	0x3c12185e	0.008916942
62	0x3f59c5dd	0.8506754
63	0x3fa50c3e	1.2894361
64	0xbddf83f4	-0.1091384
65	0x3db102e4	0.086431295
66	0x3d1efab5	0.03881331
67	0x3f3e06ae	0.7422894
68	0xbd3b506a	-0.045730986
69	0x3fde7407	1.7379159
70	0xbd3cef6d	-0.04612677
71	0x3fb5082d	1.414312
72	0x3f22f053	0.63647956
73	0x401eaa4f	2.4791448
74	0x3fffa5ec	1.997251
75	0xbd6fcefc	-0.058547005
76	0x3e49c976	0.19705757
77	0xbc0d4748	-0.008622952
78	0x3df4ddf3	0.11956396
79	0x3e0a2cba	0.13493624
80	0x3fabfff2	1.3437483
81	0x3cac39f3	0.021023726
82	0x3f73ab18	0.95182943
83	0x3dede8df	0.11616682
84	0x3eab73e7	0.33486864
85	0x3c85e213	0.016343152
86	0x3e829721	0.25505927
87	0xbd4c747a	-0.04991577
88	0x3f5ad302	0.8547822
89	0x3e1b01eb	0.1513745
90	0x3dd0b2a1	0.10190321
91	0xbd3b4832	-0.045723148
92	0x3d0adb78	0.033900708
93	0x3fbeaff5	1.4897448
94	0x3e848436	0.2588212
95	0xbccbdb35	-0.0248848
96	0xbd86888f	-0.06569015
97	0xbda6d4d8	-0.081460655
98	0x3f7e2cea	0.99287283
99	0x3e34b0cc	0.17645568
100	0x3ec26b34	0.37972414
101	0x3ea3d6ca	0.3199981
102	0x3c3125f4	0.010812271
103	0x3d6d14c0	0.057881117
104	0x3d9077a6	0.07054071
105	0xbc19c8d6	-0.009386262
106	0x3fd939c8	1.6970758
107	0xbdc29373	-0.0950078
108	0x3f89db3c	1.077003
109	0xbd89c728	-0.06727439
110	0x3f206fa0	0.62670326
111	0x3dc88984	0.09791854
112	0xbd85591f	-0.06511139
113	0x3e714e8e	0.23565122
114	0xbdbe8363	-0.09302404
115	0xbd023271	-0.031786386
116	0x3c7f06bf	0.015565573
117	0x3f811802	1.0085452
118	0xbdc8597f	-0.09782695
119	0xbdab6d3c	-0.08370444
120	0x3f48d074	0.78443074
121	0x3ffa1509	1.953767
122	0xbc6271e0	-0.013821095
123	0xbe0258b9	-0.12729158
124	0xbd69ce14	-0.057081297
125	0xbdce5b6b	-0.1007603
126	0x3f877d14	1.0585046
127	0xbd032510	-0.032017767
128	0xbce7a12d	-0.028275097
129	0x3de49dd5	0.111629166
130	0x3fff59b6	1.9949253
131	0xbd3df25e	-0.046373717
132	0x3d5c2eaf	0.05375546
133	0x3f284cd0	0.65742207
134	0x3ebb6ef4	0.36608088
135	0x3bdd91f8	0.0067617856
136	0xbdc98c74	-0.098412424
137	0x3c4b1da9	0.012397208
138	0x3fa561cd	1.2920471
139	0x3e7f0990	0.24905992
140	0x3b866d24	0.004102366
141	0x3f2457cb	0.6419646
142	0xbc96cc5e	-0.018407997
143	0xbd4546d8	-0.048163265
144	0x3f2c80cc	0.6738403
145	0x3f1285bb	0.57235307
146	0x3fce2204	1.6104131
147	0x3ca595ad	0.020212973
148	0xbd3aaa9a	-0.045572855
149	0xbd57b881	-0.05266619
150	0xbe156546	-0.14589414
151	0xbc376810	-0.011194244
152	0xbbf5eada	-0.007504803
153	0x3b474a51	0.0030409286
154	0x3d137439	0.03599951
155	0x3dc3b2f6	0.095556185
156	0xbd374a89	-0.044748817
157	0x3ff391a6	1.9028823
158	0xbe05f54a	-0.13081852
159	0x3dd159a1	0.102221735
160	0x3c8c7a34	0.017148115
161	0x3ebcd26b	0.36879286
162	0xbd26c47e	-0.040714733
163	0x3dc37633	0.09544029
164	0x3e7ab46c	0.24482888
165	0xbd11e853	-0.035621952
166	0x3c5e3e29	0.013564625
167	0x3f381c96	0.7191862
168	0x3cb55b77	0.02213834
169	0x3c1ae899	0.00945487
170	0xbdf0cc28	-0.1175769
171	0x3f16bcf2	0.5888206
172	0xbc9310aa	-0.017952282
173	0x3fb1818c	1.386766
174	0x3ff7ff31	1.9374753
175	0x3b373bd8	0.0027959254
176	0x3df2c02c	0.1185306
177	0xbd3fdb84	-0.046840206
178	0x3f94a36d	1.1612374
179	0xbc9524f0	-0.01820609
180	0x3f14ad1b	0.5807664
181	0xbd750138	-0.059815615
182	0x3d83997a	0.06425758
183	0x3e5ac86d	0.21365519
184	0xbca681a9	-0.020325499
185	0x3d92e883	0.07173254
186	0x3f02f60a	0.51156676
187	0x3f8a0bdc	1.0784869
188	0x3e272fbb	0.16326801
189	0x3e7096b9	0.23494996
190	0x3f884b06	1.0647895
191	0xbd685348	-0.05672005
192	0x3fa76dbb	1.3080362
193	0x3df7cc0c	0.12099466
194	0xbd7e8d6f	-0.0621466
195	0x3eacdcb8	0.33762145
196	0xbc9eddaa	-0.019392807
197	0x4021a42b	2.525645
198	0x3cff7b55	0.031186739
199	0x3eb105d1	0.3457475
200	0xbd8752f0	-0.06607616
201	0x3d9142ce	0.0709282
202	0x3e8f0507	0.27933523
203	0x3c44f623	0.012021574
204	0xbbf8f19e	-0.0075971624
205	0x3f042e20	0.5163288
206	0x3f85940e	1.0435808
207	0xbb6bccb1	-0.003598016
208	0xbdcf2038	-0.10113567
209	0x3fecf7a7	1.8513077
210	0x40094991	2.1451151
211	0x3cd6cefd	0.026221747
212	0xbd8ce7d1	-0.06880153
213	0xbbabad2c	-0.0052391496
214	0x3fa38a76	1.277663
215	0x3f54026d	0.828162
216	0x3f7b3f60	0.9814358
217	0x3d2a24bd	0.041538943
218	0x3cc53b66	0.024076175
219	0x3e7d1c89	0.24717917
220	0x4005f408	2.0930195
221	0x3ea2c252	0.3178888
222	0x3d39c938	0.045357913
223	0xbe534ce9	-0.20634808
224	0xbc832cc4	-0.016012557
225	0x39d0deff	0.00039838997
226	0xbd8575c4	-0.06516603
227	0x400b04ba	2.1721635
228	0x3efa184d	0.48846665
229	0x3f1677b1	0.58776385
230	0x3c5dd25a	0.013538921
231	0x3e59a26d	0.21253367
232	0x3ee7cc4a	0.45273048
233	0x3fab66b4	1.3390718
234	0x3cdc0acf	0.026860623
235	0xbd7b0ab4	-0.061289504
236	0xbc9285a5	-0.017885992
237	0xbb129631	-0.0022367353
238	0xbd93742b	-0.07199892
239	0x3f678d34	0.90449834
240	0xbda41a6d	-0.08012853
241	0x3fb3f5b6	1.405936
242	0x3f210525	0.62898475
243	0x3e097dc1	0.13426878
244	0xbd81268c	-0.0630618
245	0x3f74a553	0.95564765
246	0xbd910f4c	-0.07082996
247	0x3db151bb	0.08658167
248	0x3fa9547a	1.3228905
249	0x3f9b442c	1.213018
250	0x3ececfc9	0.40392902
251	0x3e09cc6b	0.13456886
252	0xbd4d9292	-0.05018861
253	0x3cc6578a	0.024211664
254	0x3d45982e	0.048240833
255	0xbd2046a9	-0.039129887

layers.2.weight f4 [2, 256]
0	0x3cc3a33c	0.023881547
1	0xbe767bb7	-0.24070631
2	0x3fa1513f	1.2602919
3	0x3f747423	0.9548971
4	0x3ee8dd62	0.45481402
5	0x3f300bd3	0.6876804
6	0xbe8dc6ca	-0.27690727
7	0x3d9f18a0	0.07768369
8	0xbf13309d	-0.57496053
9	0x3ed93477	0.4242284
10	0xbc8124ca	-0.015764613
11	0x3fcebafe	1.6150815
12	0xbcb5fd86	-0.022215616
13	0x3dc378ff	0.095445625
14	0x3e08f266	0.13373718
15	0xbec38ff3	-0.38195762
16	0x3f08d170	0.53444576
17	0x3f10f5ac	0.56624866
18	0xbfa62a2a	-1.2981617
19	0x3f9d70a0	1.2299995
20	0x3f8ebfb5	1.1152254
21	0x3f907086	1.128434
22	0x3bea1b04	0.007144334
23	0x3ec170fb	0.3778151
24	0xbd55dd91	-0.052213255
25	0xbe8d2bfd	-0.27572623
26	0xbdb581e0	-0.08862662
27	0x3e2be152	0.16785172
28	0xbe40b4bc	-0.18818945
29	0x3cf3c3ca	0.029756445
30	0xbe6ef72a	-0.23336473
31	0xbea853bb	-0.3287638
32	0x3d4c6117	0.04989728
33	0x3f8699ff	1.0515746
34	0xbf50725a	-0.81424487
35	0xbecc142f	-0.3985915
36	0x3e881416	0.26577824
37	0xbc2f4502	-0.010697605
38	0x3fb590f7	1.4184865
39	0x3f45cdc1	0.7726708
40	0x3f4e052c	0.8047664
41	0x3fbdfc01	1.484253
42	0xbf1f9bd2	-0.6234714
43	0xbe3c80a5	-0.18408449
44	0x3f2a0a30	0.66421795
45	0x400e4738	2.2230968
46	0x3d7a90bf	0.061173197
47	0xbd79710a	-0.060898818
48	0x3c1f4793	0.0097216545
49	0xbd21e158	-0.039521545
50	0x400c5402	2.1926274
51	0xbea3d95c	-0.3200177
52	0x3f827919	1.0193206
53	0xbee5e317	-0.44899818
54	0xbe93221c	-0.2873696
55	0x3f95c012	1.169924
56	0x3e9c2743	0.30498704
57	0xbe4b9b73	-0.19883518
58	0xbe27aeb0	-0.16375232
59	0x3fa4202a	1.2822316
60	0x3f541552	0.8284503
61	0x3e65961c	0.22420543
62	0x3f52924f	0.822545
63	0x3f9cc7d8	1.2248487
64	0xbdcefa79	-0.101063676
65	0x3e09a429	0.13441528
66	0xbe92eb89	-0.28695324
67	0x3f5b574d	0.85680085
68	0xbbe7130d	-0.0070518316
69	0x40208876	2.508329
70	0xbccf0d79	-0.025274979
71	0x4013ad91	2.3074687
72	0x3f7726ec	0.96543765
73	0x408456a3	4.135576
74	0x3fb4865f	1.4103507
75	0x3f577a37	0.8417086
76	0x3f32245d	0.69586736
77	0xbc0d6a28	-0.008631267
78	0x3f01577c	0.50524116
79	0x3e3f0579	0.18654431
80	0x3f5a6a3e	0.8531836
81	0xbddd2cba	-0.107995465
82	0x3f438d76	0.7638773
83	0xbea5f5e0	-0.3241415
84	0x3f110fed	0.56664926
85	0xbd2bbedc	-0.041930065
86	0xbe725c71	-0.23668076
87	0xbd9e9651	-0.07743514
88	0x3f1abaa2	0.6044103
89	0x3dad92f7	0.08475297
90	0x3e829908	0.2550738
91	0xbca5b2b1	-0.020226808
92	0xbd044b00	-0.032298088
93	0x4011d5d5	2.2786763
94	0x3dcdcde0	0.10049033
95	0xbe2efcec	-0.1708867
96	0xbde4c1dc	-0.11169788
97	0xbe179fe4	-0.14807087
98	0x3f30ea49	0.6910749
99	0x3f5b8974	0.8575661
100	0x3f8dbc2b	1.1073049
101	0x3d2178c6	0.03942182
102	0xbced6528	-0.0289789
103	0x3e41742c	0.18891972
104	0x3f5763d8	0.84136724
105	0xbd1ba235	-0.03799649
106	0x3fbb2fef	1.4624003
107	0xbf27f6fb	-0.6561124
108	0x3fcdbe30	1.6073666
109	0xbeed70ac	-0.46375024
110	0x3f96b5ae	1.1774194
111	0xbe285914	-0.1644023
112	0x3d6358ef	0.055504736
113	0x3eef6734	0.46758425
114	0x3e8ba03e	0.27270693
115	0x3d8b5c5d	0.06804726
116	0xbe5f1679	-0.21785916
117	0x3f487e6f	0.7831792
118	0xbed3798e	-0.41303676
119	0xbe4b278c	-0.19839305
120	0x3fac32c2	1.345299
121	0x3ff2c2c1	1.8965684
122	0x3d731230	0.059343517
123	0xbe85e672	-0.26152378
124	0x3d6a300b	0.057174724
125	0xbe867f0c	-0.26268804
126	0x3f82a500	1.0206604
127	0x3c4a5180	0.012348533
128	0xbeeec0cd	-0.4663147
129	0x3e38c850	0.18045163
130	0x4017d253	2.3722122
131	0x3d33ed7a	0.043927647
132	0xbe1b8483	-0.15187268
133	0x3f200ef2	0.62522805
134	0x3ef8ec40	0.48617744
135	0xbc1a6fa7	-0.009426034
136	0xbe139ebb	-0.1441602
137	0x3cf8e892	0.030384336
138	0x3fe4353e	1.7828748
139	0x3e975a9e	0.29561323
140	0xbd374ff5	-0.044753987
141	0x3f12baa2	0.5731603
142	0xbd4f3c10	-0.05059439
143	0x3d796d40	0.060895205
144	0x3f89d317	1.0767545
145	0xbc4e89fd	-0.012606141
146	0x4039fb34	2.9059572
147	0xbe010026	-0.12597713
148	0x3db6ae22	0.08919932
149	0xbc40f32b	-0.011776726
150	0xbf830ebf	-1.0238875
151	0x3f0cc5ca	0.549893
152	0x3cbafe6c	0.022826396
153	0x3caf9c01	0.021436693
154	0xbe90f7d5	-0.2831408
155	0xbe94de2d	-0.29075757
156	0x3cb02107	0.021500124
157	0x3ff34631	1.9005796
158	0xbf03ac63	-0.51434916
159	0xbe59117f	-0.2119808
160	0x3e41be39	0.1892022
161	0x3f9dfdb8	1.2343054
162	0x3d6d518b	0.057939094
163	0xbd81527b	-0.0631456
164	0xbc01f33b	-0.007931526
165	0xbdb594c7	-0.08866268
166	0xbe56b4ee	-0.20967457
167	0x3f1da66a	0.6158205
168	0x3f19ba6b	0.60050076
169	0x3916a622	0.00014367004
170	0x3f116581	0.5679551
171	0x3f9add0d	1.2098709
172	0x3d5361c8	0.051606923
173	0x3f6a86b9	0.9161182
174	0x3fae59f8	1.3621206
175	0x3d3342a0	0.04376471
176	0xbef20182	-0.47266775
177	0xbda0fc0c	-0.07860574
178	0x3ed90eab	0.42394003
179	0x3c628fb6	0.013828209
180	0x3f8e0ff9	1.1098624
181	0xbc7fa028	-0.015602149
182	0xbd63907c	-0.055557713
183	0x3e95e13d	0.29273406
184	0xbf492670	-0.78574276
185	0x3d47c937	0.048775878
186	0xbd989a19	-0.07451267
187	0x3f8bb567	1.0914735
188	0xbe91c2b9	-0.28468874
189	0x3edddcd9	0.43332556
190	0x3fdfb75b	1.7477831
191	0xbe0427a4	-0.12905747
192	0x3f8f81b4	1.1211457
193	0xbecf81a5	-0.40528598
194	0xbe22fd3b	-0.15916912
195	0x3f5d14b4	0.86359715
196	0xbe8089ff	-0.25105283
197	0x3fe753b6	1.8072422
198	0xbf1460ae	-0.5796002
199	0x3ecb88a4	0.39752686
200	0xbd26b5d4	-0.04070075
201	0xbedb1c2f	-0.4279494
202	0xbe38ed77	-0.18059336
203	0xbe0ac08f	-0.13550018
204	0x3dad2a35	0.08455316
205	0x3ea8c13f	0.32959935
206	0x3f5b2ec8	0.8561826
207	0xbc7d8dcb	-0.015475701
208	0xbe135754	-0.14388782
209	0x402df93e	2.7183375
210	0x402530f8	2.5811138
211	0xbf813964	-1.0095639
212	0xbf0a518a	-0.5403067
213	0xbd14a18e	-0.036286883
214	0x3f8cc0bd	1.0996319
215	0x3fbd6468	1.4796267
216	0x3fb8e76a	1.4445622
217	0x3f0c1c43	0.54730624
218	0xbdd5af0e	-0.1043378
219	0xbebba00b	-0.3664554
220	0x408a0851	4.313515
221	0x3fa7daed	1.3113686
222	0xbd412321	-0.047152642
223	0xbf96b2af	-1.177328
224	0x3d5c3a15	0.05376633
225	0xbd431a17	-0.047632303
226	0x3e4ec1b4	0.2019108
227	0x3ff18c1e	1.8870885
228	0x3f2f04af	0.6836652
229	0x3fa5b56e	1.2945993
230	0xbd94f989	-0.072741576
231	0xbcd9ed58	-0.026602432
232	0x3f579934	0.84218144
233	0x3f998895	1.1994807
234	0x3d7ee1de	0.062227122
235	0xbade7847	-0.0016973101
236	0x3cd95926	0.026531767
237	0x3d4d0d0e	0.050061278
238	0xbc8fed11	-0.017569097
239	0x3ecd1858	0.40057635
240	0xbe84d8cd	-0.25946656
241	0x3f96ff5b	1.1796678
242	0x3fa6f40c	1.3043227
243	0x3e0fcaa3	0.14042144
244	0xbe00b3e4	-0.12568623
245	0x3f53113a	0.8244816
246	0xbf1d1e37	-0.6137423
247	0x3dee8083	0.116456054
248	0x3f8f0271	1.117262
249	0x3f7d4fa8	0.9894967
250	0x3f1ec3a7	0.6201729
251	0xbe2b5d7e	-0.16734883
252	0xbd55fb4c	-0.05224161
253	0xbd146b20	-0.036234975
254	0xbdaca90c	-0.08430681
255	0xbf22ee0c	-0.6364448

layers.2.bias f4 [2]
0	0x40128f56	2.2899985
1	0x4013d3d2	2.3098035
